notebooks/url/best_charcnn.pt (torch, 191673 bytes, 4 tensors)

embedding.weight f4 [95, 64]
00000000: 0000 0000 0000 0000 0000 0000 0000 0000
00000010: 0000 0000 0000 0000 0000 0000 0000 0000
00000020: 0000 0000 0000 0000 0000 0000 0000 0000
00000030: 0000 0000 0000 0000 0000 0000 0000 0000
00000040: 0000 0000 0000 0000 0000 0000 0000 0000
00000050: 0000 0000 0000 0000 0000 0000 0000 0000
00000060: 0000 0000 0000 0000 0000 0000 0000 0000
00000070: 0000 0000 0000 0000 0000 0000 0000 0000
00000080: 0000 0000 0000 0000 0000 0000 0000 0000
00000090: 0000 0000 0000 0000 0000 0000 0000 0000
000000a0: 0000 0000 0000 0000 0000 0000 0000 0000
000000b0: 0000 0000 0000 0000 0000 0000 0000 0000
000000c0: 0000 0000 0000 0000 0000 0000 0000 0000
000000d0: 0000 0000 0000 0000 0000 0000 0000 0000
000000e0: 0000 0000 0000 0000 0000 0000 0000 0000
000000f0: 0000 0000 0000 0000 0000 0000 0000 0000
00000100: 0f0c d2be 6a2e 273e 5622 7f3d b400 94be
00000110: 5e07 07bf a313 363f e68b e73f 1ad4 3dbd
00000120: 4c02 1c3d 6587 063f cfa5 a9bf 73f7 0cbf
00000130: 6f60 e7bf 22c5 8fbe de81 71bf 9262 333f
00000140: a6d8 073c ca7b 3b3e f1fd b23c 8910 bebe
00000150: 2422 e6bd a071 8bbf 8e83 86be 4492 843e
00000160: b563 8cbf 60e3 613e 54da 563f de96 a33e
00000170: 47e6 b3be 5ac8 f63e 238a 643f 7d19 383e
00000180: 5c85 69bf 4bd5 aa3c 4da7 813f dd2c 0bc0
00000190: 4056 57bf 6caf 25bf b0d8 213e b618 07bf
000001a0: b6f5 c63e 82e0 cf3d e371 4cbf 773c 913e
000001b0: 0511 243f d888 72be 8d9c 8bbe 94d3 343f
000001c0: a7a3 0240 c1f2 1e3e b35a 893e 4ea2 be3e
000001d0: 4053 d23c 5598 153f 35d0 6b3f 08d5 733f
000001e0: acb2 8cbe f92c dabe 4157 533f e159 6e3e
000001f0: 21a3 013f d350 f7bd 4ed0 0fbf 9dbc 5c3f
00000200: 6561 b4bf f9f4 2d3e 8c88 04bf 7472 403d
00000210: 3b7e 8f3e 69b0 813f a4f9 d93e 66c0 0bbf
00000220: 18f3 2440 8059 6e3f f994 fabe 5f3a 513f
00000230: 90c2 16bf 59a1 bb3e 859b 10be c1c7 3d3f
00000240: c542 4cbe d694 993e 1eca c5be 7922 6abe
00000250: 78f9 0d3f 1f26 2f3f f53f a23f ee2a f13e
00000260: dc75 e13d 18d9 c6be 3d85 44bf 2a5f 3d3f
00000270: 56e9 29bd 0800 c4bd 89e6 0c3f d51c 98be
00000280: becc d3bc f3b1 5dbf 6922 183f 0588 3c3f
00000290: 9d7f 843e 3a15 9c3f c09c dc3e ea6c a1bf
000002a0: 96a7 d73f ebef 29be a49a fbbf eafb bf3e
000002b0: f96f f63f 5258 f93e a59e 2b3f 4086 243e
000002c0: 286f 1b40 7003 b5be 0352 273f 8bba 683d
000002d0: 7710 ef3e 7740 b4bd beea b83f c96b b8bf
000002e0: b2cb 0e40 bdf1 92be bef5 3b3e bfc6 febe
000002f0: 50c5 fa3e 8eb9 893f c627 0dc0 97f2 88bf
00000300: dce9 90bf c39b 753c 2de0 8f3f d371 8bbf
00000310: 5f5e a83d e41c a23f 9a68 d63f 8518 3c3f
00000320: 9fab 9e3e 6f3d cd3f 9ac6 2b3c ab80 973e
00000330: 041b 32bf b4e0 ba3e 2969 08bf 8085 3d3f
00000340: d8b3 c13e c823 823e c797 8abf 05b2 ac3e
00000350: d4c5 4b3f 8897 36bf 35f4 893f 7f3c eabe
00000360: 35bb 0ec0 0edc 003f 3560 acbe 0056 213f
00000370: 4159 a6bf b635 1dbe 3caf 19bf 70d4 1ebe
00000380: f10a 8bbe 3759 79bf 5145 a0be 9150 fc3e
00000390: bc5a 403d 1682 9b3e 0684 a63c 1455 c2be
000003a0: bdac b7be 14f9 79be c511 49be 90e0 1dbf
000003b0: c053 c53e 4d13 8dbf f35b 8fbd 6313 4e3f
000003c0: 4f30 b1be f8f2 32bf 6546 aa3e 99ef 6d3f
000003d0: bc77 2e3f 4da5 25be 390c dfbe ccc9 fdbd
000003e0: 81c5 babf cfd8 71be 0a4c 97be ecc5 573f
000003f0: c9e8 d8be 2776 3d3f 0d45 10bf 9f68 42bf
0.0 0.0 0.0 0.0 0.0 0.0 0.0 0.0
0.0 0.0 0.0 0.0 0.0 0.0 0.0 0.0
0.0 0.0 0.0 0.0 0.0 0.0 0.0 0.0
0.0 0.0 0.0 0.0 0.0 0.0 0.0 0.0
0.0 0.0 0.0 0.0 0.0 0.0 0.0 0.0
0.0 0.0 0.0 0.0 0.0 0.0 0.0 0.0
0.0 0.0 0.0 0.0 0.0 0.0 0.0 0.0
0.0 0.0 0.0 0.0 0.0 0.0 0.0 0.0
-0.41024825 0.163263 0.062288605 -0.28906786 -0.52745616 0.71123713 1.8089569 -0.046344854
0.038088128 0.52550346 -1.3253726 -0.5506508 -1.8076304 -0.28080088 -0.94338787 0.7007228
0.008291399 0.1830894 0.021849604 -0.3712199 -0.112369806 -1.0894051 -0.26272243 0.25892842
-1.0967928 0.22059393 0.8392689 0.3195104 -0.35136625 0.4819973 0.8927328 0.17978473
-0.91219115 0.02085366 1.0129181 -2.1746132 -0.8411598 -0.647208 0.15805316 -0.5277208
0.38859338 0.10150243 -0.7986128 0.28366444 0.6408847 -0.23685014 -0.27267876 0.7063534
2.0412385 0.15522291 0.2682701 0.37233204 0.025674462 0.58435565 0.92114574 0.95246935
-0.27480066 -0.42612436 0.82555014 0.23276474 0.5063954 -0.12075963 -0.5617722 0.862253
-1.4092222 0.16987981 -0.51770854 0.04698415 0.28025994 1.0131961 0.42573273 -0.5459045
2.5773373 0.93105316 -0.48941782 0.8172969 -0.5889063 0.36646536 -0.14121826 0.74132925
-0.19947346 0.29996365 -0.38630766 -0.22864713 0.55458784 0.68417543 1.2675768 0.47103065
0.11008808 -0.38837504 -0.76765805 0.73973334 -0.041482292 -0.095703185 0.5503927 -0.29709497
-0.025854465 -0.86599654 0.59427506 0.7364505 0.2587861 1.2193978 0.4308834 -1.2611363
1.6848018 -0.16595428 -1.9656568 0.37496883 1.9252921 0.48700196 0.6703895 0.16066837
2.4286594 -0.35354185 0.65359515 0.056818526 0.4669225 -0.08801358 1.4446638 -1.4407893
2.2311826 -0.28700057 0.18355462 -0.49761006 0.48978662 1.0759752 -2.2055526 -1.0699033
-1.1321368 0.01499075 1.1240288 -1.0894111 0.08221125 1.2665067 1.6750672 0.73474914
0.30990312 1.6034373 0.010484362 0.29590353 -0.6957247 0.3649956 -0.5328546 0.7403183
0.37832522 0.25417924 -1.0827569 0.33729568 0.79598737 -0.7132497 1.0777651 -0.4574928
-2.2301762 0.50335777 -0.3366715 0.6302185 -1.2995988 -0.1535252 -0.6003301 -0.15510726
-0.27156785 -0.97401756 -0.31302884 0.49280217 0.04696153 0.30372685 0.020326626 -0.37955534
-0.35873976 -0.24411422 -0.19635685 -0.6167078 0.3854046 -1.1021515 -0.0699996 0.8049833
-0.3460717 -0.6990199 0.33256832 0.9294372 0.6815145 -0.16176338 -0.43564013 -0.12392005
-1.4591523 -0.23617862 -0.295502 0.8428638 -0.423651 0.7400841 -0.56355363 -0.7594089

conv1.weight f4 [128, 64, 5]
00000000: 5591 8fbe a34c 93bc 351e f73d e0b1 da3e
00000010: fd10 ad3b ed42 2ebf 5e4f 6dbd 8f75 6abe
00000020: 4510 c8be eb6e 7dbf 0710 ad3d 1e50 ac3d
00000030: 72f9 07bf 75c9 a3be 646a 44bd 14a0 bc3c
00000040: dfe6 fbbe 7c1d e3bc 1b59 3b3c 18e3 44be
00000050: bbdd a83d 76b3 9cbe f033 d23d bf85 bc3c
00000060: 54a7 083e 9a5a fcbe 40ef 11be 966e b3be
00000070: f33b b0bd ddcf 9abd 321f bfbe bf20 853d
00000080: aad9 1b3f dec2 29bf d4e7 65bf 5148 b43d
00000090: 23c0 64bf 00e3 9cbd e0e9 91be cabb 6f3e
000000a0: 645f 65be b465 6fbe e038 023f 4908 7cbe
000000b0: da11 ff3e 10d7 263e a80a dd3d fa5b 3bbf
000000c0: 308c c1be 6e53 8dbc 3fcf eebd 719b 52be
000000d0: 27fc 14bf b8d8 06bf 5b6c 503f f911 593e
000000e0: 7a9b 533e 5cf3 16bd cd02 00bf 6f06 2c3f
000000f0: b6d5 5a3d a32f c73e 67d8 08be 9406 683e
00000100: c2e7 b3bd f320 18be 56d2 76be cedf 1ebe
00000110: ce87 eebd 11f1 92be 8173 813d 3db4 9d3d
00000120: 7ec8 e33d a513 803f 3bb0 dbbe 6819 1bbe
00000130: 4868 09bf ca5f 53bb 7068 7fbd eb52 f93e
00000140: 9867 e3bd b45b 383e 1503 063e 5d79 cabe
00000150: 3443 6abe d2c9 ecbc d809 76bd 5880 d1be
00000160: 7aa0 873e d50f c6bd b960 02be 673e 54be
00000170: 1511 1bbf 6dc4 8d3e 2853 7ebe 28d4 45bd
00000180: 74fd ebbe 3c91 563e 921f 9f3e fa7b dabd
00000190: b2a9 a8be 14b5 f63e 956c 2b3f ac49 adbd
000001a0: 1e53 cf3e cbd0 283e 0a66 4fbe 6734 c43e
000001b0: e0ff 223f c600 193f 319c f3be f3ef 5d3d
000001c0: b01b 17bf e65d 2ebe 54a4 b43d 2b23 bf3c
000001d0: 0ab2 303e ab53 8f3f 7afe c73d bd0a ec3e
000001e0: d7c2 c23e 4b1a 353e 79ea a33c 9105 123f
000001f0: 7032 9c3d 647c c33d 0509 68bf bab3 b33e
00000200: e646 1ebe b9d1 91be 33bc 55be 2505 c93e
00000210: 75cc 8ebe 4b87 9abd 5f71 9a3d c168 cfbe
00000220: 8fff 533e 6c0b 063e fcad 00be f148 ac3e
00000230: 14ba 9e3e 2889 1cbe b481 44be 67d3 1d3e
00000240: f7c6 49be 3f0a a9bd 497d 88be 18fd c33e
00000250: 10eb 92be 5ef4 313f 036e 75be cc2a af3e
00000260: 72ad d4be 6eb0 42bf 4ed5 78bd 319d bcbe
00000270: 6fd2 abbd f57e 083f f793 9ebe a203 98bb
00000280: 50d8 14bf 0e8e a6be 2d21 1d3f b4e2 763e
00000290: 28f0 a83e ede7 ba3d d9f1 6ebc 6cf1 cc3e
000002a0: 0fa5 353f 71e0 303e e9dd 9c3e e254 843e
000002b0: 7cb9 08be 0518 e5be 2205 3bbe d108 023d
000002c0: 74d4 8cbe 2c09 b4be 161e 92be e9f6 493f
000002d0: d78c a23e 2f4e fbbe b8f7 6abe 3fe5 eb3e
000002e0: 00ad abbe 03a3 58bd 9cf3 d43e 10fc 5abe
000002f0: b935 e03e e7f9 f73d 182f 0dbe 074b 8bbe
00000300: 22fb e1bd 6db7 90be c034 65be aa4c 733e
00000310: 4b3d 313e 9639 b13e a0de 953e c3d6 ddbe
00000320: 09c9 173d e87f 82be 0119 f3be 3471 36bf
00000330: b464 4cbe 8da8 8e3e 2b82 bdbe 4e41 373f
00000340: 9584 e93e b0c8 333f 1fca 9d3d e079 a33e
00000350: aa59 a23a 50e4 383e 9bc5 8b3e aac1 78be
00000360: 77d0 c7be d4c4 82bd 9fa4 00bf 4e57 80bf
00000370: 4fd5 abbe 1e5b 50bf 2833 f63e c694 81bf
00000380: f8d1 c5be 8830 9b3e fcbb 233f bfdd 1cbf
00000390: a5b4 e53e 2407 cf3e 9c26 d73d 1af7 6ebe
000003a0: c7d8 983e 2642 07be cf4b e33d 73d2 3a3e
000003b0: af98 1abf 695f 153e b779 5bbd 07cf 523e
000003c0: 5566 e6be 5ad1 47be 5c6e 38bd 950e 40bf
000003d0: e728 d7be 3a67 abbd a8b1 97bc e99b 433e
000003e0: abd9 383e 2f48 273f 9e84 32be 72c7 9b3d
000003f0: f091 823e 5e02 24be 8bab 763e c8c6 aa3e
-0.28040567 -0.01798088 0.120663084 0.42713833 0.005281566 -0.6807087 -0.05793702 -0.22896408
-0.39074913 -0.9899737 0.084503226 0.08413719 -0.53115 -0.31989637 -0.047953025 0.02302555
-0.49199578 -0.02772402 0.011434819 -0.19227254 0.08245417 -0.30605668 0.102638125 0.023012994
0.1334508 -0.49287874 -0.14251423 -0.35045308 -0.086051844 -0.07559178 -0.37328488 0.065003864
0.60879004 -0.6631297 -0.89806867 0.08802856 -0.8935568 -0.07660484 -0.28498745 0.2341148
-0.2239967 -0.2337864 0.50868034 -0.24612536 0.49818307 0.16292977 0.10793048 -0.7318722
-0.37802267 -0.017251696 -0.11660623 -0.20567109 -0.58197254 -0.52674437 0.8141534 0.21198262
0.20664778 -0.03685318 -0.50004274 0.67197317 0.053426467 0.3890353 -0.13363801 0.2265876
-0.08784439 -0.14856319 -0.24103674 -0.15515062 -0.116469964 -0.28699544 0.06320859 0.07700393
0.11122225 1.0005995 -0.4290789 -0.1514641 -0.53674746 -0.003225314 -0.06235546 0.48696074
-0.11103743 0.18003732 0.13087113 -0.39545718 -0.22877198 -0.02890483 -0.06006798 -0.4091823
0.2648962 -0.096709885 -0.1273221 -0.2072693 -0.6057294 0.27688923 -0.24836409 -0.04829803
-0.46091807 0.2095384 0.31078774 -0.10668178 -0.32941967 0.48185027 0.6696256 -0.084613174
0.404931 0.16485898 -0.20253769 0.3832123 0.63671684 0.59766805 -0.47580102 0.05418391
-0.5902662 -0.17028007 0.088204056 0.0233322 0.17255417 1.1197408 0.097653344 0.46101943
0.38039276 0.17685811 0.020009266 0.57039744 0.07626808 0.0954521 -0.9063876 0.35098058
-0.15456733 -0.28480318 -0.20872574 0.39261737 -0.27890363 -0.07545336 0.07541155 -0.40509608
0.20702957 0.13090295 -0.1256637 0.336494 0.3100134 -0.15286696 -0.19190103 0.15412675
-0.19704805 -0.082539074 -0.26658085 0.38279033 -0.28694963 0.695135 -0.23967747 0.3421234
-0.41538578 -0.7605046 -0.0607503 -0.36838678 -0.083897464 0.5331872 -0.30972263 -0.004639105
-0.58142567 -0.32530254 0.6137875 0.24109918 0.32995725 0.091262676 -0.014584028 0.4002794
0.70954984 0.17273118 0.30638054 0.2584601 -0.13352007 -0.44744888 -0.18263677 0.03174669
-0.2750584 -0.35163248 -0.2853858 0.7889238 0.31748077 -0.49083087 -0.2294606 0.46073338
-0.33530426 -0.052889835 0.4159211 -0.21385217 0.43790987 0.12108212 -0.13787496 -0.2720568
-0.11034228 -0.28264943 -0.22383404 0.23759714 0.17308538 0.34614247 0.29271412 -0.43327913
0.037056956 -0.2548821 -0.47480014 -0.71266484 -0.1996029 0.2786297 -0.37013373 0.7158402
0.45608965 0.702281 0.07704567 0.3192892 0.0012386341 0.18055844 0.27299199 -0.24292627
-0.39026234 -0.06385198 -0.5025119 -1.0026643 -0.3356118 -0.81389034 0.48085904 -1.0123527
-0.38636756 0.30310464 0.63958716 -0.6127586 0.44864383 0.40435135 0.10505411 -0.2333645
0.29852888 -0.13208827 0.11098444 0.18244343 -0.60389227 0.14587177 -0.053582873 0.20586787
-0.44999948 -0.19513455 -0.045027122 -0.7502225 -0.42023394 -0.08369298 -0.01851733 0.19102444
0.18051784 0.6534452 -0.17433402 0.076064005 0.25501966 -0.16016528 0.24088876 0.33354783

conv1.bias f4 [128]
00000000: fe7e 9bbf f30f 03bf 7ce0 95bf 69ff b3bf
00000010: af06 c6be d2fc 92bf ffec 26bf b3da 8bbf
00000020: fc70 c0bf 2140 d0be 48ac debe 2a86 9abf
00000030: 2a35 82bf 0b64 e2bf 3f7e 84bf 0f6a c8bf
00000040: fc21 cebf 69e8 afbf 831b babf c376 ffbe
00000050: ccdc 33bf a403 b2bf b52c 49bf 6e92 9cbf
00000060: 789f 64bf de8e a2bf 525b a0be 43f2 debf
00000070: be44 5fbf 37c6 3bbf 4b6b 69bf 832b b1bf
00000080: 8cfe adbf f84c dabf f9f4 bbbf 61aa d9bf
00000090: 1b42 59bf 07e4 b3bf ea9f a5bf 36bf f6be
000000a0: 679d b5bf c247 8dbf 480d cbbf 1f41 1ebf
000000b0: cd47 a9bf 9722 8fbf 9f93 8cbf 4ffe 14c0
000000c0: 9ad8 d1be 072e 6bbf ce55 c9bf 4578 00c0
000000d0: 7368 babf e8a7 68bf 4b85 28c0 3c48 b0be
000000e0: 3ff5 34bf 1bd0 c5bf e65e 3fbf 93d5 d1bf
000000f0: a0e9 e1bf 0bee 87bf d0c1 e0bf 7f96 26bf
00000100: dcb4 b1bf 6c97 ebbf e880 cebf ceff 13c0
00000110: e7ee d1bf 877e a6bf 8e13 d3be 6320 a1bf
00000120: 1ff0 94bf ffbd c2bf 940c b0bf bf59 16bf
00000130: 8ba4 efbf 67d4 43bf 4149 6abf dc7d 37be
00000140: c0f2 b9bf 9fdf bfbf f045 26bf 1f75 38bf
00000150: 9917 fbbf d06a 79bf 04a8 29bf 3129 9abf
00000160: d865 13c0 0871 b2bf 679f d4be 453a 1ac0
00000170: e4dc 92bf 508c c2bf fc9d b9bf e747 e0bf
00000180: 48c0 8bbf 55b6 3fbf 3ec1 b3bf f503 08bf
00000190: 1b57 28bf 28a3 cdbf 83d2 e2bf 7b10 bcbf
000001a0: 5050 5cbf ca0c 1ebf bae2 26bf 60f2 00bf
000001b0: 0e4f 6abf eafa c7bf 1ca6 b7bf 5c46 86bf
000001c0: ac34 c7bf 2bd3 d3be 7a7b b7be d7d9 ddbf
000001d0: 7059 c0bf 2e20 06bf 138b 12bf e786 debf
000001e0: 1d3c 4abf 9594 1bbf 58eb 08bf a39f 5fbf
000001f0: 2616 02bf 2ee7 fbbf e32f debf 2911 dfbf
-1.214813 -0.5119621 -1.1709132 -1.406232 -0.38676974 -1.1483405 -0.6520538 -1.0926117
-1.503448 -0.40673926 -0.43490815 -1.2072194 -1.0172474 -1.7686781 -1.0351027 -1.5657367
-1.6104121 -1.3742801 -1.4539646 -0.49895296 -0.70258784 -1.3907361 -0.7858384 -1.2232187
-0.8930583 -1.269985 -0.31319672 -1.7417682 -0.8721427 -0.73349327 -0.9117934 -1.3841404
-1.3593307 -1.7054739 -1.4684135 -1.700512 -0.84866494 -1.4053963 -1.2939427 -0.48192757
-1.418866 -1.1037524 -1.5863428 -0.61818117 -1.3225037 -1.1182431 -1.098255 -2.3280218
-0.40985566 -0.9186711 -1.572931 -2.0073407 -1.4563125 -0.90881205 -2.6331356 -0.3443011
-0.70686716 -1.5454134 -0.7475418 -1.6393303 -1.7649422 -1.061952 -1.7559147 -0.6507339
-1.3883319 -1.8405585 -1.6133089 -2.312488 -1.6401032 -1.3007363 -0.41225857 -1.2588009
-1.1635779 -1.5214232 -1.3753839 -0.5873069 -1.872209 -0.76495975 -0.91518027 -0.17919105
-1.4527206 -1.4990119 -0.64950466 -0.7205371 -1.9616576 -0.9742861 -0.66271996 -1.2043821
-2.303091 -1.3940744 -0.41527864 -2.4098065 -1.147366 -1.519907 -1.4501338 -1.7521943
-1.0918055 -0.7488759 -1.4043348 -0.5313104 -0.6575791 -1.6065416 -1.7720493 -1.469253
-0.8606005 -0.61738265 -0.6518971 -0.50369835 -0.9152688 -1.5623448 -1.4347568 -1.0490222
-1.5562949 -0.41372046 -0.35836393 -1.7332104 -1.5027294 -0.5239285 -0.5724346 -1.7384919
-0.78997976 -0.60773593 -0.53484106 -0.8735296 -0.50815046 -1.9679925 -1.7358364 -1.7427112

fc.weight f4 [1, 128]
00000000: 6d6b 213e 2398 e53d d70a ea3d c36c af3d
00000010: 0e9e 20bd 24ed 4ebd 7b04 08be 67ee 4fbd
00000020: 2408 3bbe f7ac 2cbd b3c1 83be 6e4a 52bd
00000030: 6b9a af3d 60fa 043e 0cb0 0ebe b7d0 0b3e
00000040: 29e1 103e 8d17 f13d 7426 223e c035 36bd
00000050: 6259 3abe 1d63 1e3e 9e36 4fbe 2e99 23be
00000060: 6666 fa3d d5ac 24be d604 37bd 2dcd 143e
00000070: 7abf 80be 94da 08be f0cd 11be 4eb9 2b3e
00000080: d7df d9bd fb3b 0cbe 5afa 093e f42b f63d
00000090: 0f3c d23d 4c16 093e 3786 cdbd 9638 2fbd
000000a0: 7a25 0fbe 510d 123e e77d 86be 5582 a73d
000000b0: daa9 14be 5695 d0bd 3fd9 473e 2781 1fbe
000000c0: db79 cebd 9ea5 163e 0c93 cdbd e8e2 24be
000000d0: 6b0d 073e f867 443e be88 153e fd34 5fbd
000000e0: 7303 c93d 05ad 023e 5425 aabd ddaf f23d
000000f0: 7fec 0a3e 2805 9d3d 3fe1 003e e459 993d
00000100: d970 153e 909b 163e f121 383e 06cf 143e
00000110: 2517 d73d 0f41 1c3e 950c c53d f847 dabd
00000120: 1053 23be 4373 d13d fc22 203e 0955 e0bd
00000130: a4fd 113e 4b04 ec3d ac29 183e efed 47be
00000140: b4a3 283e afe5 633e 840d c1bd e838 b7bd
00000150: 97a0 15bd 85c2 0b3e c560 133e 86dc 00be
00000160: b668 43bd e4ca 443e 44fc 36bd a2d6 8bbd
00000170: 86c0 d8bd e9c1 ee3d 5f16 f8bd 9664 0d3e
00000180: 3408 283e 603c 06be 8996 e5bd 7e0a 6ebe
00000190: 2e23 493e 769e 563e a08f 373e 04f2 04be
000001a0: 1ec7 17be f43b 933d a8f5 27be b72a fabd
000001b0: 59e1 bf3d 73ab 2d3e 4172 55be fb75 e23d
000001c0: 2e56 eebd 4550 29bd cc77 6dbd 836d 473e
000001d0: b5ef f4bd 6240 33bd 3937 47bd cb25 debd
000001e0: eb74 2cbe 1279 963d 16b8 19bd 0bc3 b03d
000001f0: 91a1 69bd a7bb 063e 3a31 203e 645d 133e
0.15763636 0.112106584 0.11427849 0.085656665 -0.039213233 -0.050519124 -0.13282959 -0.050764468
-0.18264824 -0.04215714 -0.25733718 -0.051340513 0.08574375 0.12986135 -0.13934344 0.13653837
0.14148392 0.1177207 0.15834981 -0.044484854 -0.1819816 0.15467496 -0.20235679 -0.15976402
0.12226562 -0.16081555 -0.044682346 0.14531393 -0.25146085 -0.13364631 -0.14238715 0.16769907
-0.10638397 -0.13694756 0.13474408 0.12020102 0.102653615 0.13387412 -0.10035365 -0.042778574
-0.1397914 0.14262892 -0.2626793 0.08179156 -0.14517918 -0.101847336 0.19516467 -0.15576611
-0.10081836 0.14711615 -0.100378126 -0.16102183 0.13188712 0.19180286 0.14602944 -0.054493893
0.09815111 0.12761314 -0.08307901 0.118499495 0.13566779 0.07666999 0.12585925 0.074878484
0.14593829 0.1470778 0.17981698 0.14532098 0.10502461 0.15259193 0.096215405 -0.10658258
-0.15949655 0.102270626 0.15638345 -0.10953719 0.14256912 0.11524256 0.14859647 -0.19524358
0.16468698 0.22255586 -0.09426406 -0.08946401 -0.036530104 0.13648422 0.14392383 -0.12584123
-0.047707282 0.19218022 -0.044674173 -0.06828047 -0.10583596 0.11658079 -0.12113642 0.13807902
0.16409379 -0.13108969 -0.11210353 -0.2324619 0.19642326 0.20958886 0.17925882 -0.12982947
-0.14822051 0.071891695 -0.16402304 -0.122151785 0.093691535 0.16959934 -0.20844366 0.11057659
-0.11637531 -0.041336317 -0.057975575 0.19475369 -0.11959783 -0.043762572 -0.04863665 -0.10847052
-0.16841476 0.07347311 -0.037529074 0.086309515 -0.057038847 0.13157521 0.15643778 0.14391094
