notebooks/url/best_charcnn.pt (torch, 191673 bytes, 4 tensors)

embedding.weight f4 [95, 64]
0	0x00000000	0.0
1	0x00000000	0.0
2	0x00000000	0.0
3	0x00000000	0.0
4	0x00000000	0.0
5	0x00000000	0.0
6	0x00000000	0.0
7	0x00000000	0.0
8	0x00000000	0.0
9	0x00000000	0.0
10	0x00000000	0.0
11	0x00000000	0.0
12	0x00000000	0.0
13	0x00000000	0.0
14	0x00000000	0.0
15	0x00000000	0.0
16	0x00000000	0.0
17	0x00000000	0.0
18	0x00000000	0.0
19	0x00000000	0.0
20	0x00000000	0.0
21	0x00000000	0.0
22	0x00000000	0.0
23	0x00000000	0.0
24	0x00000000	0.0
25	0x00000000	0.0
26	0x00000000	0.0
27	0x00000000	0.0
28	0x00000000	0.0
29	0x00000000	0.0
30	0x00000000	0.0
31	0x00000000	0.0
32	0x00000000	0.0
33	0x00000000	0.0
34	0x00000000	0.0
35	0x00000000	0.0
36	0x00000000	0.0
37	0x00000000	0.0
38	0x00000000	0.0
39	0x00000000	0.0
40	0x00000000	0.0
41	0x00000000	0.0
42	0x00000000	0.0
43	0x00000000	0.0
44	0x00000000	0.0
45	0x00000000	0.0
46	0x00000000	0.0
47	0x00000000	0.0
48	0x00000000	0.0
49	0x00000000	0.0
50	0x00000000	0.0
51	0x00000000	0.0
52	0x00000000	0.0
53	0x00000000	0.0
54	0x00000000	0.0
55	0x00000000	0.0
56	0x00000000	0.0
57	0x00000000	0.0
58	0x00000000	0.0
59	0x00000000	0.0
60	0x00000000	0.0
61	0x00000000	0.0
62	0x00000000	0.0
63	0x00000000	0.0
64	0x3f4c0a24	0.79702973
65	0xbf0625a0	-0.5240116
66	0x3d974604	0.07386401
67	0x3ce1438a	0.027498025
68	0x3ed2cd48	0.41172242
69	0xbe467510	-0.19380593
70	0xbe9b44cb	-0.30325922
71	0xbe9f06e4	-0.31059945
72	0xbf66794e	-0.90028846
73	0x3f1b0517	0.6055464
74	0xbd03950e	-0.03212457
75	0x3dfa827d	0.1223192
76	0xbcdb682c	-0.026783071
77	0x3f1bf7a0	0.6092472
78	0x3d368b6e	0.044566564
79	0x3f4db0a8	0.8034768
80	0xbe89f10e	-0.26941723
81	0x3f4bbe22	0.79586995
82	0x3d1702c5	0.036867876
83	0xbf952b6f	-1.165388
84	0xbf0edd8b	-0.558068
85	0x3f93ef14	1.1557336
86	0x3f5b9590	0.8577509
87	0x3e66e951	0.2254994
88	0xbe4754a2	-0.19465879
89	0xbe1072ec	-0.14106339
90	0x3ff73d7b	1.9315637
91	0x3ecb6f3c	0.39733303
92	0xbe8946dc	-0.26811874
93	0xbe24fad6	-0.16111311
94	0xbf97cce8	-1.1859407
95	0xbe2d3869	-0.1691605
96	0x3f81ae0f	1.0131243
97	0x3f402fdd	0.75073034
98	0xbf864a79	-1.0491477
99	0xbeebcb13	-0.4605337
100	0x3f23db12	0.6400615
101	0x3e88af7b	0.2669638
102	0x3e1c9096	0.1528953
103	0x3f05b035	0.52221996
104	0xbe55f864	-0.20895535
105	0x3f7759eb	0.9662158
106	0xbfce2993	-1.6106437
107	0x3fcb4623	1.5880779
108	0xc0072ba6	-2.112039
109	0xbf0aa31a	-0.54155123
110	0x3ec6b7da	0.38812143
111	0x3f78af75	0.97142726
112	0xbeab9f33	-0.33519897
113	0x3eb5fbca	0.35543662
114	0xbdead4a0	-0.11466336
115	0xbf7660bc	-0.96241355
116	0xbe7fa414	-0.24964935
117	0x3e59a1c2	0.21253112
118	0xbf6c1469	-0.92218643
119	0xbf8b8537	-1.0900029
120	0x3cef355a	0.029200245
121	0xbf2b9fc1	-0.6704064
122	0xbd0783db	-0.03308473
123	0xbec89f21	-0.39183906
124	0xbf850404	-1.039185
125	0x3d5cfec7	0.053953912
126	0x3e6601f6	0.22461686
127	0x3f9e25d9	1.23553
128	0xbd8f67ba	-0.07002206
129	0xbfcab17f	-1.5835418
130	0xbf421166	-0.758078
131	0x3fd6cef6	1.678191
132	0xbef1c9cb	-0.47224268
133	0xbf55378a	-0.8328787
134	0x3eb12c86	0.3460428
135	0x3f9ca379	1.2237388
136	0x3d6a3911	0.05718333
137	0x3f6016c1	0.8753472
138	0x3e6d9a91	0.23203494
139	0x3ed90288	0.42384744
140	0xbfd2cdfd	-1.6469113
141	0xbde11e64	-0.10992125
142	0xbd6c58a5	-0.057701726
143	0xbf2f0ac1	-0.68375784
144	0xbfa3ec86	-1.2806556
145	0xbf0fd5b8	-0.56185484
146	0x40408a90	3.0084572
147	0xbfac657e	-1.3468473
148	0xbf682993	-0.9068844
149	0x3f77bcd6	0.96772516
150	0x3e43b704	0.19112784
151	0xbf4ddc5d	-0.8041437
152	0xbe0a42af	-0.13502
153	0x3ea2dfd2	0.31811386
154	0xbec9a1d3	-0.39381275
155	0x3e1d6b9b	0.1537308
156	0x3db154d9	0.086587615
157	0x3fd1e271	1.639723
158	0xbf9004e8	-1.1251497
159	0x3f33dd0c	0.70259166
160	0xbf0a211a	-0.5395676
161	0x3ebdb9fb	0.37055954
162	0x3e1da14a	0.15393558
163	0x3f0360a9	0.51319367
164	0xc004797f	-2.0699155
165	0x3f059ef8	0.5219569
166	0x3f0441e1	0.51663023
167	0x3ebf1a18	0.37324595
168	0x3f98259f	1.1886481
169	0x3ef19254	0.47181952
170	0xbfa33f12	-1.2753623
171	0x3ff7e7ad	1.9367577
172	0xbf73cda4	-0.9523566
173	0xbe48e2e7	-0.19617806
174	0xbe378d61	-0.17925026
175	0x3f2fba7a	0.68643916
176	0x3e857627	0.26066706
177	0xbf33b884	-0.70203424
178	0x3ebada21	0.36494544
179	0xbf30cf4d	-0.69066316
180	0x3edbefd3	0.4295641
181	0xbd48642b	-0.048923653
182	0xbf069991	-0.52578074
183	0x3f86acab	1.0521444
184	0x3f9db1db	1.2319902
185	0x3fe1380b	1.7595228
186	0xbf08960e	-0.53353965
187	0xbf46c5bd	-0.77645475
188	0x3f130785	0.5743335
189	0x3fc7f2e4	1.5620999
190	0xbcc16813	-0.023609197
191	0xbe85aca7	-0.26108286
192	0xbf1dcfa9	-0.6164499
193	0xbf58dcf9	-0.8471218
194	0x3eafa958	0.34308887
195	0x3f1926a7	0.59824604
196	0x3d9f9e86	0.07793908
197	0x3d72ce38	0.059278697
198	0x3fe10d0c	1.7582107
199	0xbe82750c	-0.25479925
200	0xbf234f89	-0.63793236
201	0x3e52bea3	0.20580535
202	0xbeb3ab1b	-0.3509148
203	0xbee86664	-0.45390618
204	0xbeda8671	-0.42680696
205	0x3f9d2cad	1.2279259
206	0x3d23db86	0.040004276
207	0xbf629f40	-0.88524246
208	0xbf6fcef8	-0.93675184
209	0x3fa90225	1.320378
210	0x3ffb01ae	1.9609888
211	0xbf79bd77	-0.97554725
212	0xbdb0b0b9	-0.08627457
213	0x3ebe55ca	0.37174827
214	0x3eec4982	0.46149832
215	0xbf8641fc	-1.0488887
216	0xbd4e3022	-0.05033887
217	0xbea13b0e	-0.31490368
218	0x3eb83173	0.35975227
219	0x3e880c8f	0.2657208
220	0xbf1d4c21	-0.6144429
221	0xbf0ec165	-0.55763847
222	0x3f5cc22c	0.8623378
223	0xbf1f99ec	-0.6234424
224	0x3fa6ca31	1.3030454
225	0x3f9147cd	1.1350037
226	0xbf00c13b	-0.50294846
227	0x3f4e0599	0.8047729
228	0x3fdd5d4c	1.7294097
229	0xbe0c3d60	-0.13695288
230	0x3ed82e0d	0.42222634
231	0xbe47f338	-0.19526374
232	0xbedbec4b	-0.42953715
233	0x3e4d28cb	0.20035093
234	0xbf44ea6b	-0.76920193
235	0x3e343ec7	0.17602073
236	0xbecb3b51	-0.39693692
237	0xbfe1eed2	-1.7651007
238	0xbf7548d6	-0.95814264
239	0xbe760776	-0.24026284
240	0x3f31598b	0.69277257
241	0x3f268e04	0.6506045
242	0xbef76d0b	-0.4832538
243	0x3f4ada03	0.7923891
244	0xbe7b0ae3	-0.24515872
245	0x3f016742	0.50548184
246	0xbe236824	-0.15957695
247	0x3f356b37	0.7086672
248	0x3f0d8aaa	0.5528971
249	0xbc7ff98d	-0.015623462
250	0x3f45dc6e	0.77289474
251	0x3fc5ee88	1.5463419
252	0x3e5afc47	0.21385299
253	0x3f947589	1.1598369
254	0xbe17720d	-0.147896
255	0x3db5a93f	0.08870172

conv1.weight f4 [128, 64, 5]
0	0x3e8b47c0	0.27203178
1	0xbe02e651	-0.12783171
2	0x3f76dccf	0.9643068
3	0x3f1054e3	0.56379527
4	0xbe837473	-0.2567478
5	0x3f103d03	0.56343096
6	0x3e844583	0.25834283
7	0x3cfa415d	0.030548746
8	0x3ce7157b	0.028208485
9	0x3e3cb89e	0.18429801
10	0xbf38d9bb	-0.7220723
11	0xbee2fb71	-0.4433246
12	0x3e327bf8	0.17430103
13	0x3e78bb45	0.24290188
14	0xbf081a83	-0.53165454
15	0xbe637b6c	-0.2221505
16	0xbdedbbe9	-0.11608107
17	0xbda5050a	-0.08057602
18	0x3ef8fd2b	0.48630652
19	0xbcb30e58	-0.021857426
20	0xbf050f70	-0.5197668
21	0xbe640234	-0.22266465
22	0x3f0e9e90	0.557107
23	0x3c5db257	0.013531289
24	0xbf662b59	-0.89909893
25	0x3d9fec04	0.07808688
26	0x3ec2499e	0.3794679
27	0x3f225fbc	0.6342733
28	0x3e5a7c00	0.21336365
29	0xbe1f0122	-0.15527776
30	0x3edf564b	0.43620524
31	0x3dd13d0f	0.10216724
32	0xbf10cdae	-0.5656384
33	0x3d83cfd1	0.06436122
34	0xbd0592f9	-0.032610867
35	0xbd5f4343	-0.054507505
36	0xbec50511	-0.38480428
37	0x3ead2965	0.33820644
38	0x3ebdbfb6	0.37060326
39	0xbe9ef867	-0.3104889
40	0x3dd0b1d0	0.10190165
41	0xbeccb01a	-0.39978105
42	0xbe101a1f	-0.14072464
43	0xbd5f3c03	-0.05450059
44	0x3dba2409	0.090889044
45	0xbe54b32e	-0.20771477
46	0xbd9d8228	-0.07690841
47	0xbdcda9e4	-0.1004217
48	0xbd9b4b38	-0.07582706
49	0xbf0f8576	-0.5606302
50	0xbf25fd62	-0.64839756
51	0xbed03fa7	-0.40673563
52	0xbbba4a40	-0.005685121
53	0x3e19228c	0.14954585
54	0xbe144827	-0.14480649
55	0x3e7d6e88	0.24749196
56	0x3ebfdaa2	0.3747149
57	0x3f168f24	0.58812165
58	0x3e05bae2	0.13059571
59	0xbd35c610	-0.04437834
60	0x3ebc85e1	0.36820891
61	0x3e86a2da	0.2629612
62	0xbeb1f82e	-0.3475966
63	0x3eb4a337	0.35280773
64	0xbe6a7f8e	-0.22900221
65	0xbe3beaac	-0.18351239
66	0x3ea61da3	0.32444486
67	0x3e798815	0.24368317
68	0xbe5af718	-0.21383321
69	0xbe874281	-0.26417926
70	0xbe91cf8f	-0.28478667
71	0xbec7b0b6	-0.39002007
72	0x3d35bea1	0.04437125
73	0xbf25d378	-0.647758
74	0x3f156ab0	0.5836592
75	0x3eca4200	0.3950348
76	0xbe3e2d92	-0.18572071
77	0x3e835ccb	0.25656733
78	0xbdb23228	-0.08700973
79	0xbe32f56d	-0.17476435
80	0x3f8314bd	1.0240704
81	0xbd96a9f4	-0.07356635
82	0x3ecdfac7	0.4023039
83	0x3e4a575d	0.19759889
84	0xbddd7aa5	-0.10814408
85	0xbea0f975	-0.3144032
86	0x3d453010	0.04814154
87	0x3e2c605a	0.1683363
88	0x3e031fbc	0.12805074
89	0x3e6d4c51	0.23173644
90	0xbf5b1933	-0.85585326
91	0xbe0854a9	-0.13313545
92	0xbf4a9c8e	-0.79145133
93	0x3eb81fa9	0.35961655
94	0xbcf3a157	-0.029740019
95	0xbe016408	-0.12635815
96	0x3d83ff8d	0.06445227
97	0x3ce1b59c	0.027552418
98	0x3ee6916b	0.4503282
99	0xbcf31c70	-0.029676646
100	0x3ee15d7e	0.4401664
101	0xbef96e10	-0.48716784
102	0xbe6df450	-0.23237729
103	0x3ecdf73d	0.4022769
104	0x3ee1a09f	0.44067857
105	0xb885d352	-6.381296e-05
106	0x3eaa513c	0.33265102
107	0x3cfb730b	0.030694505
108	0x3d4d9ad8	0.0501965
109	0xbed6e5d8	-0.41972232
110	0xbf7163e6	-0.9429306
111	0xbf2f404c	-0.68457484
112	0xbf1903f1	-0.5977164
113	0x3b9f0f08	0.004854087
114	0xbfa99c7a	-1.3250878
115	0xbf0d7c96	-0.5526823
116	0xbf14f7fd	-0.581909
117	0x3f02cda9	0.5109506
118	0x3da18ec7	0.07888561
119	0xbf911c6b	-1.1336797
120	0xbd9ee97b	-0.077593766
121	0xbd9a1030	-0.07522619
122	0x3e0b1a3a	0.13584223
123	0x3e0972a1	0.13422634
124	0xbeacd75e	-0.33758062
125	0x3d43ab15	0.04777058
126	0x3e131189	0.14362158
127	0x3d78dfcc	0.060760304
128	0x3de8efab	0.11373838
129	0xbf0bc5d4	-0.54598737
130	0x3d9a9ae1	0.07549072
131	0x3d48dc06	0.049037956
132	0xbe10b55a	-0.1413168
133	0x3d496a68	0.049173743
134	0xbdb6c478	-0.08924192
135	0xbe068a3a	-0.13138667
136	0xbee2152e	-0.44156784
137	0xbf3a4734	-0.727649
138	0x3f0c33a2	0.54766285
139	0xbe2c4dcd	-0.16826554
140	0x3d95a6db	0.07307216
141	0x3e2e297d	0.17008014
142	0xbe259b8f	-0.16172622
143	0xbd998708	-0.07496458
144	0xbe35b74b	-0.17745702
145	0xbca46527	-0.020067764
146	0x3d44e933	0.04807396
147	0x3f10100d	0.5627449
148	0xbe386320	-0.18006563
149	0xbe616a23	-0.22013144
150	0x3ee9ca21	0.45662025
151	0x3e2e78fc	0.1703834
152	0x3eeeea1f	0.46662995
153	0xbdee89f1	-0.11647404
154	0xbe1cc1cb	-0.15308301
155	0x3ca7a0b5	0.020462373
156	0x3e7b071c	0.24514431
157	0x3ead0e17	0.33799812
158	0x3e5a4b7e	0.2131786
159	0x3e268ab8	0.16263855
160	0x3e853c51	0.2602258
161	0xbf19189a	-0.59803164
162	0xbe8a7d3f	-0.2704868
163	0x3f0c2985	0.54750854
164	0x3e0ca001	0.13732912
165	0xbc5a768a	-0.013333926
166	0x3e7a0595	0.24416192
167	0xbc3eb49f	-0.011639743
168	0x3f0fb88d	0.5614098
169	0xbe92bc7d	-0.2865943
170	0x3eaa30b4	0.33240283
171	0x3f47c074	0.78028035
172	0x3f2a42e3	0.6650831
173	0xbdd5b91a	-0.10435696
174	0xbe48dd20	-0.19615602
175	0xbefc9277	-0.49330494
176	0xbe8fa0eb	-0.28052458
177	0xbe4c6fb3	-0.19964485
178	0xbe6bdd52	-0.23033646
179	0xbe95d9cc	-0.29267728
180	0x3f24848c	0.6426475
181	0x3ef016f6	0.46892518
182	0x3effe7d7	0.49981567
183	0x3f3332d3	0.69999427
184	0xbf34aab0	-0.7057295
185	0xbe3641f7	-0.17798601
186	0x3d64d39f	0.05586588
187	0x3e401464	0.18757778
188	0xbd601f74	-0.054717496
189	0x3d29d861	0.04146612
190	0xbf1af1c0	-0.6052513
191	0xbebcf214	-0.3690344
192	0x3ef4d572	0.47819096
193	0x3e2a2483	0.1661549
194	0xbe160ab9	-0.14652528
195	0xbe44758b	-0.19185464
196	0xbe98fb17	-0.29879066
197	0x3d8394cf	0.06424867
198	0xbe378a86	-0.17923936
199	0xbe9ed455	-0.3102137
200	0xbf44823d	-0.7676123
201	0xbe024551	-0.12721755
202	0x3e26ff3f	0.16308306
203	0xbf135257	-0.57547516
204	0xbed8fcef	-0.42380473
205	0xbedae523	-0.42752942
206	0xbea34d5d	-0.3189496
207	0x3e278352	0.16358688
208	0xbec30a9f	-0.3809404
209	0xbf0d1b85	-0.55120116
210	0x3f3028b6	0.6881212
211	0x3f6a7866	0.91589963
212	0xbdb6db56	-0.08928554
213	0x3f046e6d	0.51730996
214	0xbe4a074e	-0.19729349
215	0x3d892a05	0.06697468
216	0xbed065f8	-0.40702796
217	0xbf2a2acd	-0.6647156
218	0xbd450eeb	-0.04810993
219	0xbe399182	-0.18121913
220	0x3f1787a9	0.59191376
221	0x3ec36b38	0.3816774
222	0x3f0af0b5	0.5427354
223	0x3f24def8	0.64402723
224	0x3f1f0cd2	0.6212894
225	0x3dc292bb	0.09500643
226	0xbd3c6740	-0.045996904
227	0xbd45c83b	-0.048286658
228	0xbe824f4e	-0.2545113
229	0x3cb1b7ec	0.021694146
230	0x3c681aab	0.014166514
231	0xbdeb8fbf	-0.11502027
232	0x3e5923c5	0.21205051
233	0xbdf3d523	-0.11905887
234	0xbe807550	-0.25089502
235	0xbe8228db	-0.25421795
236	0x3e014261	0.12622978
237	0x3db0abbe	0.08626507
238	0xbe1f814e	-0.1557667
239	0xbe9784ea	-0.29593593
240	0x3eade1c9	0.33961323
241	0x3ea1b25f	0.315814
242	0xbe1b3aad	-0.15159102
243	0x3e81f90c	0.2538532
244	0xbe42cd49	-0.19023623
245	0xbcadd97d	-0.02122187
246	0x3ed0358a	0.40665847
247	0xbf0ea631	-0.5572234
248	0xbee37c4b	-0.44430766
249	0x3f059c2a	0.5219141
250	0x3dfb8673	0.122815035
251	0x3cea7be8	0.028623536
252	0x3e2fdf9f	0.17175148
253	0x3ef6291f	0.48078248
254	0x3dcacba5	0.09902123
255	0xbd9f874a	-0.07789476

conv1.bias f4 [128]
0	0xbf363257	-0.7117056
1	0xbf5e8dc4	-0.8693507
2	0xbfe5c3af	-1.7950343
3	0xbef3747e	-0.47549814
4	0xbfbe07e4	-1.4846158
5	0xbf448151	-0.7675982
6	0xbfcc6c40	-1.5970535
7	0xbf842501	-1.0323793
8	0xbf4f6cb5	-0.8102525
9	0xbf11d055	-0.56958514
10	0xbfceac81	-1.6146394
11	0xbfaf3914	-1.3689294
12	0xbfedf9b7	-1.8591832
13	0xbfdb6334	-1.7139649
14	0xbfadbfc1	-1.3574144
15	0xbf5624ca	-0.83649886
16	0xbf08a82b	-0.53381604
17	0xbf8fd728	-1.1237535
18	0xbf968c04	-1.1761479
19	0xbeed4195	-0.46339098
20	0xbf92974a	-1.145242
21	0xbf302125	-0.68800575
22	0xc008a415	-2.1350148
23	0xbf81c5bc	-1.0138469
24	0xbefcdc01	-0.493866
25	0xc0000144	-2.0000772
26	0xbef41ce8	-0.47678304
27	0xc00cb28c	-2.1983976
28	0xbf88a54f	-1.0675448
29	0xbfc80d0b	-1.562898
30	0xbf872039	-1.0556709
31	0xbeb79369	-0.35854653
32	0xbf59a4bd	-0.85016996
33	0xbff676e8	-1.9255037
34	0xbf2ce5a4	-0.67537904
35	0xbfa03218	-1.2515287
36	0xbface636	-1.3507755
37	0xc005efd0	-2.092762
38	0xbfbbb0ef	-1.4663371
39	0xbfdde032	-1.7334044
40	0xbf93256a	-1.1495793
41	0xbf4d034b	-0.8008315
42	0xc00382c2	-2.0548558
43	0xbfd11eca	-1.6337521
44	0xbfa14548	-1.2599268
45	0xbfe9939f	-1.8248175
46	0xbf8ed8cb	-1.115991
47	0xbfc55220	-1.5415688
48	0xbfbd96d2	-1.4811652
49	0xc00647d3	-2.0981338
50	0xbfe64385	-1.7989355
51	0xbeea6ea0	-0.45787525
52	0xbfc230e8	-1.5171175
53	0xbf2e7d91	-0.6816035
54	0xbf909dc5	-1.1298147
55	0xbf65511e	-0.895769
56	0xbf734e6b	-0.9504153
57	0xbf4a7e2e	-0.79098785
58	0xbf9b7545	-1.2145163
59	0xbfcae5fb	-1.5851434
60	0xbfd687d9	-1.6760207
61	0xbecee96d	-0.40412465
62	0xbfcf3a8b	-1.6189741
63	0xbfec79ae	-1.8474634
64	0xbfc1dc6f	-1.5145396
65	0xbfbb8f6f	-1.4653147
66	0xbefffec3	-0.49999055
67	0xbf637819	-0.8885513
68	0xbef9e824	-0.48809922
69	0xbfaeb95c	-1.3650317
70	0xbf766a69	-0.9625612
71	0xbfee85ad	-1.8634545
72	0xbf05954b	-0.5218093
73	0xbf5e6280	-0.8686905
74	0xbf9bea53	-1.2180885
75	0xbf168d6f	-0.5880956
76	0xbfee0408	-1.859498
77	0xbf2762c0	-0.65385056
78	0xbfafe624	-1.3742108
79	0xbf46b634	-0.7762177
80	0xbf714d57	-0.94258636
81	0xbfb77490	-1.4332447
82	0xbf2693e1	-0.65069395
83	0xbf6fe200	-0.93704224
84	0xbed5d188	-0.41761422
85	0xbff618fb	-1.9226373
86	0xbf6df6a8	-0.9295449
87	0xbfece858	-1.8508406
88	0xc00dbe0f	-2.2147253
89	0xbf0e51e9	-0.55593735
90	0xbfb7d0b1	-1.4360563
91	0xbf540cbe	-0.82831943
92	0xbfc73395	-1.5562617
93	0xbfcdb409	-1.6070567
94	0xbfdeb192	-1.739794
95	0xbfe9bc01	-1.8260499
96	0xbf8b6159	-1.0889083
97	0xbfbb2b6a	-1.4622624
98	0xbfce8f90	-1.6137562
99	0xbf410c1b	-0.75409096
100	0xbff56090	-1.9170094
101	0xbfc02196	-1.501025
102	0xbfcca090	-1.59865
103	0xbfe88c3d	-1.8167797
104	0xbf0aab19	-0.54167324
105	0xbfc8ed6f	-1.5697459
106	0xbfcda655	-1.6066386
107	0xbfae01b9	-1.3594276
108	0xc012b9b3	-2.2925842
109	0xbfc881bd	-1.5664593
110	0xc00c4dde	-2.1922526
111	0xbf8777b7	-1.0583409
112	0xbfda8a78	-1.7073507
113	0xbfe548fd	-1.7912899
114	0xbf0d9169	-0.55300003
115	0xbfa5773c	-1.2927012
116	0xbf05ad17	-0.5221724
117	0xbf876772	-1.0578444
118	0xbf25464c	-0.6456039
119	0xbfa774bc	-1.30825
120	0xbffebac2	-1.9900744
121	0xc01f626d	-2.4903824
122	0xbfb947e3	-1.4475063
123	0xbf10ffe7	-0.56640476
124	0xbfd09ec3	-1.629845
125	0xbfb860ef	-1.4404582
126	0xbf11b190	-0.56911564
127	0xbf4bfc98	-0.796823

fc.weight f4 [1, 128]
0	0xbda67b3e	-0.08128975
1	0x3db7dfa7	0.08978205
2	0x3e274401	0.16334535
3	0xbd0b8f4a	-0.034072198
4	0x3e086168	0.13318408
5	0xbe16bf1b	-0.14721338
6	0x3e10d395	0.14143212
7	0xbe99c970	-0.30036497
8	0x3df09553	0.11747231
9	0xbdce6217	-0.10077303
10	0x3e283f23	0.16430335
11	0xbe1652f3	-0.1468008
12	0xbe17afd1	-0.14813162
13	0xbe122249	-0.14270891
14	0x3dbe3b45	0.092886485
15	0xbdf3a81f	-0.11897301
16	0xbd218a14	-0.039438322
17	0x3db8bd54	0.090204865
18	0x3e28af7d	0.16473193
19	0xbd2d48c8	-0.042305738
20	0x3de5ae7d	0.112149216
21	0xbdee5f0c	-0.116392225
22	0x3e04169b	0.12899248
23	0xbdb5bc24	-0.088737756
24	0x3da121b0	0.078677535
25	0xbe041db9	-0.12901963
26	0xbd2cfdc5	-0.0422342
27	0x3e3242a8	0.1740824
28	0x3dff01a9	0.124514885
29	0x3e08897e	0.13333699
30	0xbdda424b	-0.10657176
31	0x3db52a0b	0.0884591
32	0xbdef7758	-0.11692685
33	0x3e29e2ba	0.16590396
34	0xbe2da024	-0.1695562
35	0xbdd78c88	-0.10524851
36	0x3dc09fdc	0.09405491
37	0x3e14531a	0.14484826
38	0x3e646434	0.2230385
39	0x3e03ed48	0.12883484
40	0x3e483da4	0.19554764
41	0xbe3bad46	-0.18327817
42	0x3e0598d2	0.13046578
43	0x3e16af08	0.14715207
44	0xbde1d6d5	-0.11027304
45	0x3e0d4f13	0.13799696
46	0xbe124323	-0.14283423
47	0x3e803a14	0.2504431
48	0x3e0eadbb	0.1393346
49	0x3e4725f4	0.19448072
50	0x3dfb1f69	0.122618504
51	0xbd134b0b	-0.03596024
52	0x3e4c2e64	0.19939572
53	0xbeabd6a2	-0.3356219
54	0xbddee675	-0.108838
55	0xbdfd3da4	-0.12365273
56	0xbdcf5813	-0.10124221
57	0x3db39438	0.08768505
58	0xbe14f0e9	-0.14545025
59	0x3dfa7350	0.12229025
60	0x3e125075	0.14288504
61	0x3db3a624	0.08771923
62	0xbe07f973	-0.13278751
63	0xbdc1445b	-0.09436866
64	0x3e114145	0.14185055
65	0x3e085556	0.13313803
66	0xbd18ea6b	-0.037332933
67	0x3dec8d8d	0.11550436
68	0xbd20d8d1	-0.039269272
69	0xbe321d54	-0.17394
70	0xbdffac4e	-0.124840364
71	0xbdb0631b	-0.08612653
72	0x3d9b4c68	0.07582933
73	0xbd888059	-0.066651054
74	0xbe0363c7	-0.12831031
75	0xbe5fdd1f	-0.21861695
76	0xbdf132f0	-0.11777294
77	0xbd2a7bc8	-0.041621953
78	0x3e1fe115	0.15613206
79	0xbe9a6255	-0.30153146
80	0xbd78c528	-0.060734898
81	0x3df8103a	0.1211247
82	0xbe239392	-0.15974262
83	0xbde2aaa6	-0.11067705
84	0xbd2a5ce3	-0.04159249
85	0xbd6874a8	-0.056751877
86	0xbde0ed97	-0.10982817
87	0x3e1f3763	0.15548472
88	0x3ddc63d2	0.10761227
89	0xbd972783	-0.07380583
90	0xbe8b2729	-0.27178314
91	0xbe0a99ac	-0.13535184
92	0x3e0ff5d2	0.14058617
93	0xbdbad29f	-0.09122204
94	0x3e0c6aa4	0.13712555
95	0x3e0660a7	0.13122807
96	0xbde90eb7	-0.1137976
97	0x3dbe2143	0.09283688
98	0x3e01d2f1	0.12678124
99	0x3db32167	0.08746605
100	0x3e0b5aba	0.13608828
101	0x3dfa7f89	0.12231357
102	0xbe32bbf6	-0.17454514
103	0x3df203d3	0.11817136
104	0xbe1623ae	-0.14662048
105	0x3e07b8b6	0.13254055
106	0x3e00f406	0.12593088
107	0x3dffd264	0.12491301
108	0xbde3e819	-0.111282535
109	0x3e08b17a	0.13348952
110	0xbd922b52	-0.07137169
111	0xbe1b7501	-0.15181352
112	0x3e1f08f6	0.15530762
113	0xbe1b1a9a	-0.15146866
114	0xbe8a348c	-0.26993215
115	0xbde85f6a	-0.11346324
116	0xbd1ecf0e	-0.03877168
117	0xbdf037af	-0.11729371
118	0xbd0cbe71	-0.034361307
119	0x3e13da39	0.14438714
120	0x3dc9087f	0.098160736
121	0xbddf0c25	-0.10890988
122	0x3e2eda6d	0.1707551
123	0x3e457791	0.19283892
124	0x3df69ed3	0.12042012
125	0xbdbc552c	-0.09195933
126	0xbd12bebc	-0.03582643
127	0x3e24a0ee	0.16077015
