notebooks/url/best_charcnn.pt (torch, 191673 bytes, 4 tensors)

embedding.weight f4 [95, 64]
0.0 0.0 0.0 0.0 0.0 0.0 0.0 0.0
0.0 0.0 0.0 0.0 0.0 0.0 0.0 0.0
0.0 0.0 0.0 0.0 0.0 0.0 0.0 0.0
0.0 0.0 0.0 0.0 0.0 0.0 0.0 0.0
0.0 0.0 0.0 0.0 0.0 0.0 0.0 0.0
0.0 0.0 0.0 0.0 0.0 0.0 0.0 0.0
0.0 0.0 0.0 0.0 0.0 0.0 0.0 0.0
0.0 0.0 0.0 0.0 0.0 0.0 0.0 0.0
-1.4896392 1.8634962 0.6228924 0.02894005 0.11047527 1.1287559 -0.050893456 0.13604409
-0.83861923 0.90272695 -0.46577483 -0.3071673 -0.024348354 0.47251457 -0.82907146 -1.1112785
-0.07836287 -0.7819233 0.34880182 0.035414867 0.30346036 -0.017364893 2.0303764 -0.044673186
-0.7826966 0.14339153 0.2728407 -1.3312099 2.155827 0.475088 1.1212806 1.2774875
0.28686258 0.51874655 -0.19756666 -0.6450392 0.22204095 0.059448823 -1.6456037 0.29291105
-0.0019877034 0.46568432 0.30376416 1.2216612 0.42696625 0.53181136 -0.26177993 1.5510739
-0.58639675 0.11886163 -1.1901604 0.09569496 0.58376217 -1.7016964 0.3680551 0.15766542
-0.6303095 -0.5613185 0.26513162 0.098694146 0.119521335 -0.20962559 0.43013507 0.5981819
1.6392096 1.3076029 -0.119239554 1.3612351 0.065342754 0.33662432 -0.9712573 0.90059817
0.56501067 -0.90728587 0.21302272 2.019358 -0.2768921 -0.806596 -1.2083346 -0.6654727
1.2633367 0.1600585 -1.111195 0.92861456 2.5744834 0.35506147 0.4299973 -0.10470977
-0.3348773 0.26275894 -0.6956937 -0.799823 1.207228 1.0754195 1.3979207 0.9883737
-0.1835463 -0.23275709 -0.12232289 1.1472552 -0.23282184 0.022902379 0.13909347 -1.3062972
0.49177042 0.72619635 0.450185 0.8585297 0.2496112 -0.04741812 2.198957 1.4130402
-0.16243245 0.27559236 -0.7073511 -0.6772341 0.28191686 -0.7493108 0.01015243 -0.23623492
0.48305848 1.8831229 1.0233542 0.1062359 1.1360425 1.189397 -0.85832334 0.19067624
0.20276502 0.27125573 -1.4699599 -0.25157264 -0.11105093 -0.00642781 0.60319686 0.011038586
-0.16407649 0.26739225 -0.076147825 0.22406739 -0.6352412 -0.46614248 -0.25073528 0.39221907
0.23704582 0.37232995 0.5187656 1.1491731 -0.033268534 -0.049423065 -1.2101325 -0.16388737
-1.2859108 1.1735381 -0.9704361 -0.653428 0.72939265 0.06120036 1.0545516 0.47788143
0.27409405 -0.1329804 -0.38982147 -0.698506 0.6494535 -0.08928333 -1.7381471 -1.8230132
1.0030653 0.78806275 0.93328685 0.7571624 -0.12110995 1.2788707 -0.8116823 -0.7560269
-0.20476438 -0.3556276 0.60602266 -0.10544458 0.61785007 -0.5969812 -0.17486481 0.37584218
-0.44197693 0.02012288 0.7455958 0.35005337 1.2680353 -1.8566756 -0.20387247 -0.25294363
00000000: 0000 0000 0000 0000 0000 0000 0000 0000
00000010: 0000 0000 0000 0000 0000 0000 0000 0000
00000020: 0000 0000 0000 0000 0000 0000 0000 0000
00000030: 0000 0000 0000 0000 0000 0000 0000 0000
00000040: 0000 0000 0000 0000 0000 0000 0000 0000
00000050: 0000 0000 0000 0000 0000 0000 0000 0000
00000060: 0000 0000 0000 0000 0000 0000 0000 0000
00000070: 0000 0000 0000 0000 0000 0000 0000 0000
00000080: 0000 0000 0000 0000 0000 0000 0000 0000
00000090: 0000 0000 0000 0000 0000 0000 0000 0000
000000a0: 0000 0000 0000 0000 0000 0000 0000 0000
000000b0: 0000 0000 0000 0000 0000 0000 0000 0000
000000c0: 0000 0000 0000 0000 0000 0000 0000 0000
000000d0: 0000 0000 0000 0000 0000 0000 0000 0000
000000e0: 0000 0000 0000 0000 0000 0000 0000 0000
000000f0: 0000 0000 0000 0000 0000 0000 0000 0000
00000100: 7fac bebf 0b87 ee3f e075 1f3f af13 ed3c
00000110: dc40 e23d 137b 903f a875 50bd 244f 0b3e
00000120: c0af 56bf 1d19 673f 0a7a eebe 0845 9dbe
00000130: 3376 c7bc 6eed f13e 073e 54bf 603e 8ebf
00000140: b67c a0bd 202c 48bf 2796 b23e 2e0f 113d
00000150: 285f 9b3e d240 8ebc b0f1 0140 3bfb 36bd
00000160: ce5e 48bf 3bd5 123e c7b1 8b3e 1665 aabf
00000170: 12f9 0940 bc3e f33e 1f86 8f3f b684 a33f
00000180: a7df 923e 93cc 043f ea4e 4abe 4a21 25bf
00000190: b45e 633e 9c80 733d 24a3 d2bf 70f8 953e
000001a0: 2144 02bb 2d6e ee3e fa86 9b3e 655f 9c3f
000001b0: 529b da3e ca24 083f 0508 86be 9789 c63f
000001c0: 191e 16bf ba6d f33d 2d57 98bf b8fb c33d
000001d0: 7071 153f 30d1 d9bf b871 bc3e 0b73 213e
000001e0: f75b 21bf 92b2 0fbf 55bf 873e 2820 ca3d
000001f0: 9ac7 f43d 17a8 56be aa3a dc3e 7322 193f
00000200: 9fd1 d13f 885f a73f de33 f4bd f43c ae3f
00000210: 6cd2 853d 065a ac3e 52a4 78bf 9a8d 663f
00000220: 8aa4 103f e343 68bf a122 5a3e 293d 0140
00000230: cdc4 8dbe 137d 4ebf b5aa 9abf 6b5c 2abf
00000240: 04b5 a13f 60e6 233e a33b 8ebf afb9 6d3f
00000250: 56c4 2440 9eca b53e 9b28 dc3e 1372 d6bd
00000260: 0a75 abbe 5788 863e fb18 32bf 33c1 4cbf
00000270: 7286 9a3f 59a7 893f 11ef b23f 0f06 7d3f
00000280: 90f3 3bbe e057 6ebe 6c84 fabd 42d9 923f
00000290: d968 6ebe c59d bb3c 856e 0e3e bf34 a7bf
000002a0: 55c9 fb3e 01e8 393f a67e e63e 9ac8 5b3f
000002b0: 149a 7f3e 8139 42bd b6bb 0c40 80de b43f
000002c0: b154 26be 711a 8d3e f614 35bf 375f 2dbf
000002d0: 6857 903e d5d2 3fbf 6156 263c 91e7 71be
000002e0: 7153 f73e 2c0a f13f 45fd 823f 3592 d93d
000002f0: d769 913f 293e 983f 14bb 5bbf a240 433e
00000300: a2a1 4f3e 08e2 8a3e a527 bcbf 21ce 80be
00000310: ac6e e3bd 61a0 d2bb 1c6b 1a3f 2fdb 343c
00000320: ab03 28be a3e7 883e 64f3 9bbd ec71 653e
00000330: 2b9f 22bf 3aaa eebe 6060 80be f0d0 c83e
00000340: 24bc 723e 08a2 be3e d3cd 043f 1b18 933f
00000350: 9644 08bd d76f 4abd 9fe5 9abf 17d2 27be
00000360: ba98 a4bf 7f36 963f 806e 78bf 0f47 27bf
00000370: 7ab9 3a3f 3bad 7a3d 8cfb 863f e0ac f43e
00000380: 0e56 8c3e 042c 08be ae96 c7be 4ad1 32bf
00000390: 9642 263f 2eda b6bd 9b7b debf 7f58 e9bf
000003a0: 7264 803f 7bbe 493f e3eb 6e3f 65d5 413f
000003b0: 7e08 f8bd 09b2 a33f 69ca 4fbf fb8a 41bf
000003c0: c1ad 51be d214 b6be 4d24 1b3f 54f3 d7bd
000003d0: 6c2b 1e3f c3d3 18bf c30f 33be 636e c03e
000003e0: cd4a e2be bdd8 a43c 5edf 3e3f 323a b33e
000003f0: fb4e a23f 8ca7 edbf f2c3 50be d481 81be

conv1.weight f4 [128, 64, 5]
-0.07536935 -0.45815575 -0.5325121 0.10592769 -0.32746732 -0.13262713 -0.3615865 0.17059143
-0.10902325 0.05531494 -0.02403013 -0.16837029 0.0471842 0.12142902 -0.08555208 -0.8247635
-0.3177109 0.43547174 -1.1139624 0.084909484 -0.30384642 0.08291975 -0.12653647 -0.38688123
0.14043164 0.16541097 0.20929123 -0.13651247 0.10260995 -0.054279484 0.13759808 -0.32961944
-0.103533074 0.08322911 0.1310728 -0.44872576 0.14499481 -0.07623311 0.14272662 0.01151869
-0.44769743 -0.30613914 -0.27958372 -0.3466669 0.13541922 0.07128005 -0.8479376 -0.31023932
0.0613024 0.4176741 -0.5306534 0.067812875 -0.0035671496 0.5755602 -0.0134515045 -0.6247524
-0.2979534 -0.20564343 -0.16600247 0.308737 -0.48826727 0.26994866 -0.032180455 -0.36836794
-0.29323298 -0.07927844 0.11001755 -0.35362577 -0.93782794 0.36174068 0.34959033 0.22415718
0.37574375 0.6505062 -0.2506404 0.15581478 -0.23432091 0.42729104 -0.20160624 -0.088013574
0.26886672 -0.15009242 0.4955405 -0.62108266 -0.16812404 0.26712203 -0.4097582 0.065316975
-0.35119453 -0.3780177 -0.30261472 -0.24068706 -0.33854714 -0.35107404 0.20516987 -0.5173266
-0.1720756 -0.10626419 -0.3253464 0.11693304 -0.34970525 0.2746665 0.010193372 0.012211418
0.48169354 -0.31639898 0.0072180377 0.06005753 0.068787776 -0.3634532 -0.054719325 0.19025515
0.27302483 -0.32154217 -0.20569742 1.0288959 -0.28227416 0.068351276 0.5171289 -0.44062597
0.6849502 0.15040164 0.35175875 0.47474378 -0.11133134 0.34079716 0.021228813 0.14268202
-0.09422007 -0.1035053 0.21041678 -0.25262356 0.36881083 0.22095124 -0.13518493 0.022508284
-0.24994181 -0.040761076 0.25710064 0.35069925 0.03961288 -0.418644 0.30763894 -0.82547814
0.089143395 0.14563316 -0.26605153 -0.024475818 0.020487875 0.090473555 -0.37495807 -0.08145455
-0.034235794 -0.14861989 0.24980462 -0.0283522 -0.7777674 -0.5292108 0.024081763 0.27389753
0.002836552 0.045250922 -0.19534503 -0.044786848 0.23213029 0.1816851 -0.033167064 -0.03700108
-0.2595209 -0.2126013 0.57504606 -0.46629754 0.508507 -0.5329081 -0.18682736 0.3247721
-0.009844474 0.39274958 0.042374942 -0.4084022 -0.3558702 -0.47202107 0.10653055 0.29687038
-0.42826462 0.17653674 -0.21186796 0.09190959 0.08937081 0.42327332 0.39687338 -0.3101033
0.2585731 1.0056053 -0.13888016 0.16928652 -0.32959718 -0.45060512 -0.65995747 -0.07139539
0.13564551 0.40996584 -0.19670385 0.072888464 -0.35273615 -0.115702316 -0.011869327 -0.08024719
0.08635982 0.08561395 -0.32834697 -0.28526577 0.15557125 -0.014836793 -0.08004348 0.20656395
-0.1112241 -0.21732572 -0.39225405 -0.13191606 -0.14125113 0.080718264 0.3439435 -0.49473423
0.03397017 0.25317937 0.20837106 -0.3790055 -0.37365416 -0.042630468 -0.90376115 -0.4310753
-0.14189783 -0.042615216 -0.28287223 0.12805185 0.0727122 -0.058394738 0.15246803 -0.28172007
-0.21950416 -0.004781124 0.32718715 -0.2841308 -0.23874858 -0.4514422 -0.24584939 -0.0140354
-0.074837364 0.16126528 0.154117 0.07665986 0.43700293 -0.17334317 -0.05393945 -0.17938232
00000000: 3f5b 9abd 6493 eabe b752 08bf 9ef0 d83d
00000010: cca9 a7be 68cf 07be de21 b9be 85af 2e3e
00000020: 9547 dfbd eb91 623d d6da c4bc 4369 2cbe
00000030: 3844 413d c7af f83d ee35 afbd b323 53bf
00000040: 01ab a2be 27f6 de3e 5296 8ebf 06e5 ad3d
00000050: c291 9bbe d4d1 a93d c792 01be 4c15 c6be
00000060: 50cd 0f3e 7e61 293e 7150 563e edc9 0bbe
00000070: 2a25 d23d 2a54 5ebd 83e6 0c3e e1c3 a8be
00000080: 2609 d4bd 0674 aa3d f337 063e 62bf e5be
00000090: 8579 143e 1b20 9cbd ed26 123e e3b8 3c3c
000000a0: 9938 e5be 45be 9cbe 9925 8fbe 537e b1be
000000b0: 56ab 0a3e 46fb 913d 7012 59bf b0d7 9ebe
000000c0: 3a18 7b3d 61d9 d53e e7d8 07bf 7ae1 8a3d
000000d0: d7c6 69bb ea57 133f b363 5cbc c6ef 1fbf
000000e0: 598d 98be 3194 52be 8dfc 29be c712 9e3e
000000f0: 2bfe f9be b636 8a3e a7cf 03bd b99a bcbe
00000100: a222 96be bc5c a2bd e250 e13d 700e b5be
00000110: 7e15 70bf 1336 b93e 81fd b23e 7689 653e
00000120: 7c61 c03e 9387 263f f053 80be e98d 1f3e
00000130: d2f1 6fbe e4c5 da3e de71 4ebe 7640 b4bd
00000140: e6a8 893e d4b1 19be 7cb7 fd3e 46ff 1ebf
00000150: b528 2cbe 38c4 883e d4cb d1be e8c4 853d
00000160: c5cf b3be 898b c1be 51f0 9abe ab76 76be
00000170: 0d56 adbe fabf b3be 0d18 523e 846f 04bf
00000180: 9634 30be 0aa1 d9bd ce93 a6be 977a ef3d
00000190: 910c b3be 16a1 8c3e 1a02 273c 6612 483c
000001a0: 89a0 f63e 0cff a1be 4a85 ec3b e2fe 753d
000001b0: 9be0 8c3d 8a16 babe 5f21 60bd 3fd2 423e
000001c0: e9c9 8b3e 2da1 a4be 58a2 52be dcb2 833f
000001d0: 3d86 90be c1fb 8b3d 8f62 043f ba99 e1be
000001e0: e558 2f3f e302 1a3e b919 b43e 9e11 f33e
000001f0: b001 e4bd f77c ae3e 0ce8 ad3c 3c1b 123e
00000200: 74f6 c0bd 96fa d3bd 7f77 573e e057 81be
00000210: c6d4 bc3e 0b41 623e eb6d 0abe 4b63 b83c
00000220: bff0 7fbe 16f5 26bd b2a2 833e da8e b33e
00000230: 1e41 223d 8258 d6be da82 9d3e 8952 53bf
00000240: d090 b63d dc20 153e e837 88be 8381 c8bc
00000250: 30d6 a73c 334a b93d 81fa bfbe a5d1 a6bd
00000260: d53a 0cbd d02f 18be c8cc 7f3e df42 e8bc
00000270: c41b 47bf 5c7a 07bf 1e47 c53c 4c3c 8c3e
00000280: 72e5 393b 0859 393d 8708 48be 6a72 37bd
00000290: 90b3 6d3e a90b 3a3e 30da 07bd 728e 17bd
000002a0: ecdf 84be 28b4 59be 3836 133f 8dbe eebe
000002b0: 842d 023f aa6c 08bf ac4f 3fbe 8748 a63e
000002c0: b74a 21bc 7916 c93e 5991 2d3d 181a d1be
000002d0: 9e34 b6be bfac f1be b02c da3d 65ff 973e
000002e0: 8045 dbbe 0cc6 343e eaf3 58be 183b bc3d
000002f0: 0b08 b73d 48b7 d83e fd32 cb3e dcc5 9ebe
00000300: b263 843e adb7 803f 9a36 0ebe 7259 2d3e
00000310: f6c0 a8be b7b5 e6be f9f2 28bf bf37 92bd
00000320: a8e6 0a3e 0be7 d13e bc6c 49be 8c46 953d
00000330: d599 b4be 56f5 ecbd 9177 42bc a458 a4bd
00000340: 6bdd b03d 5e56 af3d 181d a8be 5b0e 92be
00000350: 124e 1f3e 0516 73bc d6ed a3bd 8085 533e
00000360: 76c9 e3bd a28a 5ebe 86d5 c8be 0115 07be
00000370: 23a4 10be 9e4f a53d 5d19 b03e ce4d fdbe
00000380: 4e24 0b3d baa0 813e 395f 553e 020d c2be
00000390: 994f bfbe 499d 2ebd e45c 67bf e7b5 dcbe
000003a0: aa4d 11be 4b8d 2ebd a1d4 90be 0620 033e
000003b0: 22ea 943d 522f 6fbd 9420 1c3e 9d3d 90be
000003c0: b3c5 60be faaa 9cbb 1385 a73e 9879 91be
000003d0: 827a 74be 6f23 e7be f1bf 7bbe bcf4 65bc
000003e0: 5544 99bd ba22 253e d9d0 1d3e d8ff 9c3d
000003f0: d9be df3e df80 31be 9def 5cbd 00b0 37be

conv1.bias f4 [128]
-0.5279352 -0.6943202 -1.0806823 -0.39383307 -1.4163281 -1.0638245 -0.8667547 -1.3595158
-1.261229 -1.1553557 -0.91221845 -1.0897835 -0.8438008 -1.3301353 -1.5299987 -1.6722806
-0.62843347 -0.45073327 -1.3912927 -0.43701896 -0.7945615 -0.8008955 -1.349419 -1.6255425
-1.0494353 -1.9979993 -0.5199066 -0.93498015 -0.8765167 -1.4955404 -1.196712 -1.2290397
-0.26415578 -1.2369372 -1.4849355 -0.45920706 -0.70431995 -0.57221466 -0.9146159 -0.72492164
-1.1550989 -0.4170892 -0.970489 -0.92144483 -0.48213768 -1.2899802 -0.5139523 -1.348463
-1.1818185 -0.8360313 -1.1507009 -0.81039065 -0.45177576 -0.65060645 -0.9616397 -1.6332761
-0.9572672 -1.3343719 -1.1240071 -1.6604527 -0.45590156 -1.1498234 -1.63837 -0.5072332
-0.9855636 -0.86953306 -0.84428614 -0.854208 -1.3646342 -1.1078638 -1.0549315 -1.3932589
-1.032359 -0.33458877 -0.7018152 -1.0613476 -0.48687226 -0.4671278 -0.42594743 -0.22059117
-0.29051796 -0.86932135 -1.0904148 -0.5009881 -1.7034417 -2.2140718 -0.97139466 -0.820304
-1.0132158 -1.281405 -0.8117426 -0.8524373 -1.1589813 -1.401215 -1.0644622 -1.2334931
-0.30315325 -0.58608705 -0.57517886 -1.2236415 -0.37348843 -1.1177564 -0.68964297 -1.171128
-0.6372715 -0.6527768 -0.5399103 -0.5899006 -0.4227775 -1.2632574 -0.7835876 -1.9474493
-0.52473587 -1.4866998 -1.1428696 -0.65846276 -0.6846133 -0.5549216 -0.9605043 -1.1772062
-1.2566359 -0.9353438 -1.3143246 -0.81602454 -1.5590371 -0.30940965 -0.4775253 -0.85986817
00000000: c326 07bf f8be 31bf cc53 8abf 7da4 c9be
00000010: 3d4a b5bf 672b 88bf a3e3 5dbf 9d04 aebf
00000020: f46f a1bf b2e2 93bf 2687 69bf 077e 8bbf
00000030: 5403 58bf e041 aabf ffd6 c3bf 4a0d d6bf
00000040: 04e1 20bf 83c6 e6be e115 b2bf f3c0 dfbe
00000050: 6268 4bbf 7d07 4dbf c3b9 acbf c711 d0bf
00000060: e553 86bf 71be ffbf 9918 05bf dc5a 6fbf
00000070: 6663 60bf de6d bfbf dc2d 99bf 2c51 9dbf
00000080: 6d3f 87be f553 9ebf 5e12 bebf 301d ebbe
00000090: 504e 34bf a97c 12bf 4524 6abf 7794 39bf
000000a0: 48da 93bf b78c d5be f871 78bf cfe3 6bbf
000000b0: c0da f6be 121e a5bf 6192 03bf 709a acbf
000000c0: d445 97bf 2606 56bf 2b4a 93bf c375 4fbf
000000d0: 274f e7be 258e 26bf 052e 76bf 310f d1bf
000000e0: 770f 75bf b3cc aabf 77df 8fbf b789 d4bf
000000f0: ee6b e9be 6a2d 93bf 1cb6 d1bf 09da 01bf
00000100: e54d 7cbf b899 5ebf 2323 58bf 60ad 5abf
00000110: 55ac aebf 7bce 8dbf ff07 87bf 4f56 b2bf
00000120: 5724 84bf 384f abbe 29aa 33bf 3dda 87bf
00000130: 5247 f9be 602b efbe c815 dabe a7e2 61be
00000140: c5be 94be d88b 5ebf b692 8bbf c240 00bf
00000150: 610a dabf 5ab3 0dc0 52ad 78bf 71ff 51bf
00000160: 0eb1 81bf 1405 a4bf 5dce 4fbf 5539 5abf
00000170: 8059 94bf 035b b3bf 4c40 88bf 1ae3 9dbf
00000180: e736 9bbe cd09 16bf ec3e 13bf 49a0 9cbf
00000190: e039 bfbe a412 8fbf 718c 30bf 86e7 95bf
000001a0: 3a24 23bf 611c 27bf 9037 0abf ba03 17bf
000001b0: 4b76 d8be 6bb2 a1bf 3299 48bf 0546 f9bf
000001c0: 1755 06bf 2e4c bebf 8d49 92bf 0491 28bf
000001d0: d142 2fbf 580f 0ebf 9ce3 75bf b1ae 96bf
000001e0: 72d9 a0bf b172 6fbf ca3b a8bf fce6 50bf
000001f0: 878e c7bf f16a 9ebe 327e f4be 5220 5cbf

fc.weight f4 [1, 128]
-0.12982458 -0.3252862 0.0845417 -0.0402767 0.10421401 0.16779202 -0.17280237 0.11068416
0.12654331 0.13422209 0.1367121 -0.09130184 -0.10812049 0.105043836 0.102497205 -0.10458107
-0.11830395 -0.1534804 0.07314304 -0.039979577 -0.111359015 -0.10036871 0.08923073 0.1088116
0.12413266 -0.1671299 -0.09316187 0.079646826 -0.13874042 -0.15732494 0.10166097 0.09403306
0.0769443 -0.054558184 0.13349582 -0.0502381 -0.1118068 -0.068815365 0.10319132 0.10878557
-0.1039723 -0.042467356 0.08561634 0.1206192 -0.05673563 0.1739396 0.132187 0.12146353
0.05907906 -0.16692238 0.11513427 0.109811194 -0.04650685 -0.0803142 0.13635415 0.090545304
0.10645868 0.12273839 0.11189209 -0.11146353 0.07692644 -0.09961447 0.17586263 -0.046125688
0.15893567 -0.103764385 0.16536687 0.13088351 -0.10131132 -0.06213686 -0.09013224 0.14421499
-0.15782958 -0.051415425 -0.08847644 0.07770164 -0.2329967 -0.02999444 -0.02553828 0.07469295
0.08486223 0.095350966 0.12775503 -0.06225619 0.10355395 -0.061231375 0.14910996 0.11559983
0.09360318 -0.0428843 0.09089802 0.12718883 -0.06395675 0.15794355 -0.14345568 0.13293754
-0.07151841 -0.13994938 -0.034341644 -0.06961226 -0.3875653 0.105054975 0.107981384 -0.12811616
-0.065468036 -0.11368327 0.07876236 -0.10552767 -0.041553494 -0.12542728 0.07034619 0.09192824
0.09328012 -0.12830976 -0.08754661 -0.13078581 -0.1274606 -0.15797737 -0.10253564 0.104320005
0.12684374 -0.09430755 0.10496011 0.10668097 0.14190088 0.057812188 -0.04932686 -0.088082716
00000000: bcf0 04be ea8b a6be 3324 ad3d 2ef9 24bd
00000010: 286e d53d acd1 2b3e 1bf3 30be 60ae e23d
00000020: 9294 013e 8471 093e 42fe 0b3e 76fc babd
00000030: 476e ddbd 3921 d73d 0eea d13d 9a2e d6bd
00000040: 5749 f2bd f729 1dbe 05cc 953d a0c1 23bd
00000050: 3210 e4bd 1c8e cdbd 9abe b63d 9ed8 de3d
00000060: 4439 fe3d 1a24 2bbe a7cb bebd e01d a33d
00000070: f811 0ebe ca19 21be a033 d03d 6894 c03d
00000080: f994 9d3d 6778 5fbd 21b3 083e 77c6 4dbd
00000090: f7fa e4bd 12ef 8cbd f955 d33d f8ca de3d
000000a0: 6eef d4bd 40f2 2dbd 9f57 af3d 3307 f73d
000000b0: 9f63 68bd 391d 323e 075c 073e dfc1 f83d
000000c0: e2fc 713d b3ed 2abe 84cb eb3d b1e4 e03d
000000d0: f77d 3ebd c57b a4bd 6ca0 0b3e d16f b93d
000000e0: 0207 da3d 445e fb3d ae27 e53d fe46 e4bd
000000f0: 9c8b 9d3d ac02 ccbd 5515 343e 4aee 3cbd
00000100: 08c0 223e 6c82 d4bd ef55 293e 5406 063e
00000110: 4f7c cfbd 3883 7ebd 4097 b8bd 18ad 133e
00000120: 149e 21be fb98 52bd 2333 b5bd 0a22 9f3d
00000130: b096 6ebe e6b6 f5bc a835 d1bc 9ef8 983d
00000140: 40cc ad3d 5e47 c33d 37d2 023e 5900 7fbd
00000150: 1814 d43d c0cd 7abd 48b0 183e 9bbf ec3d
00000160: 06b3 bf3d 73a7 2fbd be28 ba3d ca3d 023e
00000170: c2fb 82bd f4bb 213e 0ce6 12be c720 083e
00000180: 3f78 92bd e44e 0fbe d3a9 0cbd df90 8ebd
00000190: f66e c6be 1027 d73d 5825 dd3d e230 03be
000001a0: 1b14 86bd c6d2 e8bd 294e a13d e41e d8bd
000001b0: ff33 2abd 0270 00be aa11 903d e044 bc3d
000001c0: a609 bf3d a263 03be a34b b3bd b7ec 05be
000001d0: 0885 02be d2c4 21be 35fe d1bd baa5 d53d
000001e0: 53e3 013e 5124 c1bd 53f5 d63d 8d7b da3d
000001f0: 774e 113e 79cc 6c3d f60a 4abd b664 b4bd
