notebooks/url/best_charcnn.pt (torch, 191673 bytes, 4 tensors)

embedding.weight f4 [95, 64]
0.0 0.0 0.0 0.0 0.0 0.0 0.0 0.0
0.0 0.0 0.0 0.0 0.0 0.0 0.0 0.0
0.0 0.0 0.0 0.0 0.0 0.0 0.0 0.0
0.0 0.0 0.0 0.0 0.0 0.0 0.0 0.0
0.0 0.0 0.0 0.0 0.0 0.0 0.0 0.0
0.0 0.0 0.0 0.0 0.0 0.0 0.0 0.0
0.0 0.0 0.0 0.0 0.0 0.0 0.0 0.0
0.0 0.0 0.0 0.0 0.0 0.0 0.0 0.0
-1.5520835 1.8081889 0.6870219 -0.0022863536 0.09816959 1.1701661 -0.07263309 0.10959472
-0.8882454 0.90448934 -0.55499274 -0.39075375 -0.080304645 0.44983038 -0.75427073 -1.1574174
-0.069395564 -0.8085348 0.36739475 0.002043381 0.3557329 -0.05257648 2.1025794 -0.04270638
-0.7750743 0.089357994 0.19333686 -1.4142497 2.066868 0.47490498 1.1694057 1.3039992
0.16967134 0.4827041 -0.23465124 -0.6477991 0.15746355 -0.0250287 -1.6115116 0.28909606
-0.028398989 0.4951966 0.19472846 1.2145813 0.4567946 0.57786703 -0.32481426 1.6404129
-0.70571953 0.03254507 -1.198915 0.09422222 0.63209766 -1.7249513 0.3541776 0.16972025
-0.6468094 -0.6507135 0.14720383 0.13982639 0.08145255 -0.221437 0.5856639 0.6570918
1.5772524 1.3250982 -0.062040213 1.3884876 0.056635913 0.29422292 -1.0104194 0.90686387
0.53026175 -0.9886243 0.26455808 2.0866227 -0.2505985 -0.87381095 -1.2193924 -0.8273137
1.2921106 0.018995158 -1.1397064 0.9092023 2.730494 0.3683158 0.49167824 -0.11470556
-0.3168145 0.24225977 -0.80076826 -0.8422493 1.2021992 1.0650841 1.4306844 0.96797353
-0.08446574 -0.21841879 -0.2328995 1.0752208 -0.3121493 -0.0030970508 0.1566883 -1.3726401
0.42156255 0.7121947 0.4799754 0.95579255 0.30346838 -0.12522623 2.2162354 1.5652174
-0.15729685 0.21237105 -0.7203759 -0.71758765 0.21959136 -0.738409 0.005880854 -0.24716604
0.55233425 1.9765202 1.0172505 0.13275777 1.1856965 1.1518273 -0.79761016 0.32532597
0.17831175 0.2514431 -1.5605344 -0.30553123 -0.19194376 -0.0010393922 0.68699634 -0.05141387
-0.21390584 0.29923394 -0.13475114 0.23367383 -0.6569263 -0.5236522 -0.18628609 0.4664978
0.21862422 0.38630104 0.5769552 1.1410239 0.0070529226 -0.07731238 -1.2660203 -0.09940721
-1.300557 1.2866273 -1.0078999 -0.60863376 0.695362 -0.011127121 1.0485852 0.48226437
0.2420476 -0.21339671 -0.43387932 -0.6920271 0.7007757 -0.016873928 -1.7354277 -1.9498804
1.0668342 0.7510736 0.982897 0.7449013 -0.15532248 1.2955505 -0.8492258 -0.86932087
-0.29412386 -0.34078872 0.6602385 -0.037072316 0.6102865 -0.5710368 -0.19818614 0.35399288
-0.38181165 0.060431257 0.76419914 0.3128059 1.2405348 -1.9021112 -0.30910692 -0.30606633
00000000: 0000 0000 0000 0000 0000 0000 0000 0000
00000010: 0000 0000 0000 0000 0000 0000 0000 0000
00000020: 0000 0000 0000 0000 0000 0000 0000 0000
00000030: 0000 0000 0000 0000 0000 0000 0000 0000
00000040: 0000 0000 0000 0000 0000 0000 0000 0000
00000050: 0000 0000 0000 0000 0000 0000 0000 0000
00000060: 0000 0000 0000 0000 0000 0000 0000 0000
00000070: 0000 0000 0000 0000 0000 0000 0000 0000
00000080: 0000 0000 0000 0000 0000 0000 0000 0000
00000090: 0000 0000 0000 0000 0000 0000 0000 0000
000000a0: 0000 0000 0000 0000 0000 0000 0000 0000
000000b0: 0000 0000 0000 0000 0000 0000 0000 0000
000000c0: 0000 0000 0000 0000 0000 0000 0000 0000
000000d0: 0000 0000 0000 0000 0000 0000 0000 0000
000000e0: 0000 0000 0000 0000 0000 0000 0000 0000
000000f0: 0000 0000 0000 0000 0000 0000 0000 0000
00000100: acaa c6bf bc72 e73f abe0 2f3f a6d6 15bb
00000110: 230d c93d 01c8 953f a8c0 94bd 3273 e03d
00000120: 0d64 63bf 9d8c 673f 0114 0ebf e010 c8be
00000130: c376 a4bd 2b50 e63e e317 41bf 4126 94bf
00000140: 431f 8ebd 23fc 4ebf 2a1b bc3e 3fea 053b
00000150: 9f22 b63e 6f5a 57bd a990 0640 e3ec 2ebd
00000160: 456b 46bf 5301 b73d 19fa 453e 2206 b5bf
00000170: 9147 0440 bf26 f33e 16af 953f 72e9 a63f
00000180: 53be 2d3e fe24 f73e 6a48 70be 29d6 25bf
00000190: 203e 213e fd08 cdbc 0346 cebf 6604 943e
000001a0: ffa4 e8bc 698a fd3e e666 473e 6677 9b3f
000001b0: fbe0 e93e 18ef 133f 0e4e a6be 0df9 d13f
000001c0: 09aa 34bf fb4d 053d 0c76 99bf 94f7 c03d
000001d0: 27d1 213f 34cb dcbf c456 b53e 25cb 2d3e
000001e0: 4d95 25bf 2995 26bf 9abc 163e a62e 0f3e
000001f0: 98d0 a63d 62c0 62be 12ee 153f 2b37 283f
00000200: 68e3 c93f d19c a93f e11d 7ebd f6b9 b13f
00000210: 0ffb 673d 63a4 963e 6c55 81bf 3b28 683f
00000220: 3cbf 073f 7b16 7dbf 2874 873e 3a8b 0540
00000230: 724e 80be 13b2 5fbf 0d15 9cbf d5ca 53bf
00000240: e163 a53f bc9b 9b3c e6e1 91bf 7bc1 683f
00000250: 6ac0 2e40 e393 bc3e 40bd fb3e c0ea eabd
00000260: 8335 a2be f212 783e 26ff 4cbf a69d 57bf
00000270: aae1 993f ad54 883f ab20 b73f 1dcd 773f
00000280: 60fc acbd 2da9 5fbe 357d 6ebe d6a0 893f
00000290: 08d2 9fbe e4f7 4abb e672 203e acb2 afbf
000002a0: 0cd7 d73e 6452 363f 56bf f53e d2ae 743f
000002b0: 3560 9b3e 4e3b 00be cdd6 0d40 0b59 c83f
000002c0: 6d12 21be cc77 593e 8e6a 38bf d3b3 37bf
000002d0: 8fdc 603e 5f08 3dbf 2eb4 c03b 1819 7dbe
000002e0: c765 0d3f 9dfe fc3f 4435 823f a7f1 073e
000002f0: e7c4 973f 146f 933f 2e30 4cbf 2091 a63e
00000300: 5b97 363e 26bd 803e 97bf c7bf 976e 9cbe
00000310: e88c 44be 373c 88ba fede 2f3f 5a97 52bd
00000320: 220a 5bbe 3135 993e 34fc 09be 3148 6f3e
00000330: 522c 28bf 120e 06bf c8c1 3ebe cdd8 ee3e
00000340: 07df 5f3e 40c9 c53e 56b3 133f 120d 923f
00000350: 341c e73b f455 9ebd f40c a2bf 0296 cbbd
00000360: a778 a6bf 34b0 a43f dd02 81bf 6ccf 1bbf
00000370: 3e03 323f 874e 36bc 0a38 863f 5beb f63e
00000380: 53db 773e ab84 5abe 6e25 debe b028 31bf
00000390: 0966 333f 313b 8abc 7f22 debf ae95 f9bf
000003a0: 068e 883f 5c46 403f 239f 7b3f dab1 3e3f
000003b0: db0c 1fbe 99d4 a53f dd66 59bf d08b 5ebf
000003c0: 6797 96be dc7b aebe 6405 293f 24d9 17bd
000003d0: bc3b 1c3f 782f 12bf 4ff1 4abe 8e3e b53e
000003e0: d17c c3be c486 773d 8ea2 433f 1828 a03e
000003f0: d8c9 9e3f 6178 f3bf 4343 9ebe bab4 9cbe

conv1.weight f4 [128, 64, 5]
-0.10262342 -0.36461562 -0.5244322 0.058484383 -0.30378646 -0.087513715 -0.37649053 0.09074227
-0.07423256 0.11567628 -0.017897053 -0.20039703 0.08084952 0.079572 0.013634391 -0.6472955
-0.28923872 0.31347254 -0.8968306 0.089254 -0.26150057 0.051748607 -0.14569394 -0.3697553
0.16713683 0.17651391 0.16934949 -0.12015754 0.13431168 0.062213194 0.090362705 -0.20748115
-0.10403085 0.106917575 0.04347122 -0.54897213 0.08315502 -0.14818247 0.063544564 0.024850424
-0.37728864 -0.26384538 -0.26854467 -0.3080261 0.24149899 0.0054284255 -0.69585294 -0.33744678
0.0040400927 0.33546883 -0.4386797 -0.07716688 0.018221308 0.5049589 -0.053283367 -0.57917815
-0.15161806 -0.11632111 -0.118872106 0.2893282 -0.48515305 0.24865459 0.016294384 -0.28829795
-0.20036346 -0.005803548 0.15537348 -0.37474334 -0.8074414 0.31738192 0.25541213 0.31873783
0.37143096 0.5795527 -0.19903931 0.1532695 -0.1818419 0.46735555 -0.10907158 -0.017824918
0.20276931 -0.16822124 0.5755711 -0.46877745 -0.18788587 0.19346441 -0.42644858 0.06437008
-0.28971112 -0.33223647 -0.20644526 -0.1920023 -0.3289681 -0.16509935 0.15764666 -0.51903284
-0.17521767 -0.13988315 -0.30706063 0.124238655 -0.26844838 0.23076464 -0.009994734 0.07886061
0.41926995 -0.26674467 -0.010571334 0.10400983 -0.005995254 -0.40377924 -0.061071005 0.20846416
0.09176323 -0.35399982 -0.14921023 0.92207295 -0.33278504 0.03147944 0.48292404 -0.49752384
0.57060254 0.17968436 0.22574359 0.402593 -0.12217301 0.4344101 0.09847049 0.08264634
-0.04929023 0.061092343 0.13332924 -0.12637264 0.28939742 0.17523536 -0.31353697 0.06360503
-0.160817 -0.006318216 0.22418472 0.22343935 0.13101253 -0.38844335 0.24945627 -0.791141
0.17516123 0.23229831 -0.21669461 -0.10060666 0.0702012 0.08465745 -0.37672064 0.016316896
-0.014798426 -0.18182565 0.35136124 0.05313251 -0.8251567 -0.5649799 0.061183024 0.2500498
0.04956778 0.0056936094 -0.022836713 -0.13229784 0.185753 0.14809096 -0.11140957 -0.013387269
-0.32184565 -0.23155095 0.5549026 -0.33672252 0.46853256 -0.40864992 -0.09263318 0.3102559
0.082607575 0.3538676 0.15590551 -0.35808793 -0.35171866 -0.3781807 0.1539234 0.23799679
-0.3689896 0.15382235 -0.2730727 0.14916287 0.156884 0.34150767 0.34631985 -0.30564353
0.20530961 0.76878566 -0.09252129 0.10878687 -0.3433306 -0.3607071 -0.55278945 -0.08406623
-0.01731327 0.3636709 -0.3202869 0.14091626 -0.3636784 -0.101778924 -0.12675959 -0.124359995
0.05916184 0.11348451 -0.26840818 -0.2944854 0.2776592 0.038256597 -0.16216473 0.23685335
-0.11745568 -0.22414857 -0.32055563 0.007015601 -0.111646324 0.065381736 0.2591736 -0.39082062
-0.07639508 0.11459514 0.21612929 -0.4536297 -0.27414486 0.08957783 -0.7605509 -0.4079883
-0.19570588 -0.020545136 -0.18839957 0.06702734 0.16192566 -0.003861588 0.052444395 -0.17857878
-0.236019 0.02703559 0.3959825 -0.18817797 -0.25889313 -0.49375325 -0.25987744 -0.09260824
-0.13067557 0.13955751 0.17552792 0.13184224 0.33165848 -0.13231675 -0.040285397 -0.20055775
00000000: 3a2c d2bd e6ae babe 3041 06bf 528d 6f3d
00000010: e689 9bbe 643a b3bd 5ec3 c0be 15d7 b93d
00000020: 3e07 98bd afe7 ec3d d79c 92bc e134 4dbe
00000030: 6f94 a53d a5f6 a23d c862 5f3c 28b5 25bf
00000040: 1917 94be 797f a03e b196 65bf cdca b63d
00000050: 67e3 85be 59f6 533d cb30 15be 9150 bdbe
00000060: eb25 2b3e 10c0 343e f469 2d3e 2815 f6bd
00000070: 0089 093e 43d3 7e3d 1510 b93d f075 54be
00000080: 200e d5bd 9af7 da3d e10e 323d 7089 0cbf
00000090: 2e4d aa3d 25bd 17be a723 823d 1e93 cb3c
000000a0: fa2b c1be be16 87be b07e 89be 99b5 9dbe
000000b0: 834b 773e efe0 b13b 6b23 32bf d3c5 acbe
000000c0: c162 843b 92c2 ab3e a09a e0be ab09 9ebd
000000d0: da44 953c fd44 013f a93f 5abd 0545 14bf
000000e0: c441 1bbe c339 eebd 3873 f3bd d322 943e
000000f0: fb65 f8be 4f9f 7e3e cd7b 853c ca9b 93be
00000100: 142c 4dbe b02b bebb 3a1a 1f3e 5cde bfbe
00000110: 7bb4 4ebf e27f a23e 61c5 823e 9b31 a33e
00000120: 332c be3e 915d 143f f6d0 4bbe aef2 1c3e
00000130: c334 3abe 3a49 ef3e ec60 dfbd 9005 92bc
00000140: c2a2 4f3e 3042 2cbe a158 133f 9903 f0be
00000150: 2765 40be 891b 463e 7857 dabe 76d4 833d
00000160: 0455 94be e61a aabe 6366 53be 409c 44be
00000170: 826e a8be ce0f 29be 206e 213e 56df 04bf
00000180: 436c 33be 873d 0fbe 0d37 9dbe d670 fe3d
00000190: 1172 89be 914d 6c3e f4c0 23bc ac81 a13d
000001a0: 8daa d63e c292 88be 6333 2dbc 1b03 d53d
000001b0: d673 c4bb 27bc cebe 9725 7abd a177 553e
000001c0: 5cee bb3d 773f b5be 91ca 18be f90c 6c3f
000001d0: cd62 aabe 96f0 003d d241 f73e 72bb febe
000001e0: 0213 123f 2dff 373e 5429 673e ab20 ce3e
000001f0: d835 fabd 006b de3e e5aa c93d 7c42 a93d
00000200: 8de4 49bd f73b 7a3d 7687 083e d467 01be
00000210: e62b 943e e670 333e eb87 a0be 5b43 823d
00000220: 36ad 24be 0a09 cfbb ae90 653e 49cd 643e
00000230: 2628 063e 0ce2 c6be 7771 7f3e 3788 4abf
00000240: 775d 333e 9cdf 6d3e 31e5 5dbe dd0a cebd
00000250: a6c5 8f3d e360 ad3d 87e1 c0be 03ab 853c
00000260: 1975 72bc 8130 3abe 9fe5 b33e 7aa1 593d
00000270: 783d 53bf 86a2 10bf 0d9b 7a3d 8706 803e
00000280: 9607 4b3d 7591 ba3b 0f14 bbbc 1679 07be
00000290: 0936 3e3e 28a5 173e b32a e4bd 4756 5bbc
000002a0: f4c8 a4be b11b 6dbe 190e 0e3f e566 acbe
000002b0: 80e3 ef3e 903a d1be 77b6 bdbd dcd9 9e3e
000002c0: 292e a93d 222e b53e b2a5 1f3e 4d57 b7be
000002d0: 7814 b4be e7a0 c1be 199e 1d3e 6eb5 733e
000002e0: 34ec bcbe 9b83 1d3e 2fd0 8bbe 27be 183e
000002f0: 33a6 203e 18da ae3e d650 b13e 4f7d 9cbe
00000300: af3c 523e 23cf 443f cd7b bdbd a7cb de3d
00000310: 07c9 afbe 9aae b8be 9c83 0dbf ea2a acbd
00000320: 8fd4 8dbc 1233 ba3e a5fc a3be 5a4c 103e
00000330: 0e34 babe 7871 d0bd 44cd 01be 74b0 febd
00000340: af53 723d 916a e83d cc6c 89be cac6 96be
00000350: 5929 8e3e f3b2 1c3d 830e 26be af89 723e
00000360: 9b8c f0bd 3487 65be de1f a4be 20e3 e53b
00000370: d4a6 e4bd dce6 853d 67b2 843e a419 c8be
00000380: 0675 9cbd dbb0 ea3d ff50 5d3e 2742 e8be
00000390: b75c 8cbe 9574 b73d 77b3 42bf d8e3 d0be
000003a0: 1f67 48be 464e a8bc d1eb 40be a145 893d
000003b0: d7cf 253e b212 7dbb efcf 563d 5bdd 36be
000003c0: f7ae 71be be79 dd3c 38be ca3e bab1 40be
000003d0: a48d 84be 3acd fcbe a80e 85be 64a9 bdbd
000003e0: d1cf 05be 2ae8 0e3e 97bd 333e a701 073e
000003f0: 24cf a93e 0b7e 07be 4d02 25bd 035f 4dbe

conv1.bias f4 [128]
-0.49473402 -0.6625198 -0.89269406 -0.37431234 -1.1681017 -0.9409645 -0.73683614 -1.2004997
-1.065117 -1.0469375 -0.8192728 -0.95384675 -0.7974209 -1.127351 -1.3122482 -1.4545877
-0.5220767 -0.41573617 -1.1698532 -0.41664103 -0.6888685 -0.65743005 -1.1814413 -1.379359
-0.91395175 -1.7795963 -0.47657362 -0.8810252 -0.76898485 -1.3115824 -1.0388038 -1.0419921
-0.21997714 -1.0117357 -1.331489 -0.43227217 -0.58364224 -0.53425986 -0.79053956 -0.66083926
-0.9740835 -0.40188873 -0.84544224 -0.80653876 -0.4778405 -1.1392891 -0.4341824 -1.1801187
-1.0001023 -0.63488287 -1.0086888 -0.7024047 -0.41489527 -0.574892 -0.8767799 -1.401267
-0.80998695 -1.1425633 -0.9987313 -1.3744452 -0.41341275 -0.93931377 -1.4570843 -0.47004706
-0.88305134 -0.7866265 -0.7469091 -0.78172594 -1.1796433 -0.96491003 -0.922485 -1.1776857
-0.8977156 -0.3246124 -0.5731389 -0.9407398 -0.49719757 -0.4321499 -0.4222714 -0.19678766
-0.31245926 -0.75911504 -0.93174624 -0.5053468 -1.4392467 -1.8744231 -0.8542242 -0.71095043
-0.84758025 -1.1641809 -0.6821601 -0.7773406 -0.99134994 -1.2483022 -0.9099745 -1.0340238
-0.26498073 -0.53882664 -0.54507077 -1.0401869 -0.36077645 -0.95879984 -0.6331829 -1.0084753
-0.5718602 -0.58565867 -0.51125 -0.53778565 -0.39056873 -1.0822201 -0.70668495 -1.618601
-0.506674 -1.2393309 -1.0175235 -0.6061317 -0.6732885 -0.47038668 -0.86200327 -0.99875546
-1.1122206 -0.77462023 -1.1583831 -0.7211057 -1.2661548 -0.283877 -0.46907467 -0.72111213
00000000: c74d fdbe e69a 29bf 9987 64bf dea5 bfbe
00000010: 5b84 95bf 0de3 70bf 4ba1 3cbf f9a9 99bf
00000020: c155 88bf 0c02 86bf ddbb 51bf 4d2f 74bf
00000030: c723 4cbf 0a4d 90bf c0f7 a7bf ee2f babf
00000040: d2a6 05bf 5fdb d4be c0bd 95bf f951 d5be
00000050: b059 30bf 564d 28bf 7839 97bf d68e b0bf
00000060: bef8 69bf d0c9 e3bf 7501 f4be de8a 61bf
00000070: 31dc 44bf efe1 a7bf 86f7 84bf ff5f 85bf
00000080: b041 61be 8e80 81bf 3b6e aabf c752 ddbe
00000090: 9469 15bf 41c5 08bf cd60 4abf c32c 29bf
000000a0: 895d 79bf 5cc4 cdbe e76e 58bf 5379 4ebf
000000b0: 83a7 f4be 3ad4 91bf 284d debe 210e 97bf
000000c0: 5a03 80bf af87 22bf b71c 81bf cbd0 33bf
000000d0: 276d d4be 1f2c 13bf a674 60bf b85c b3bf
000000e0: 4e5b 4fbf 843f 92bf dbac 7fbf d2ed afbf
000000f0: d6aa d3be de76 70bf bd81 babf 02aa f0be
00000100: a70f 62bf 5b60 49bf 6f35 3fbf 311f 48bf
00000110: 8dfe 96bf 5804 77bf fa27 6cbf 68be 96bf
00000120: b1d0 65bf 9933 a6be 3bb9 12bf 53d4 70bf
00000130: ae90 febe c042 ddbe f533 d8be b482 49be
00000140: a9fa 9fbe 5d55 42bf ec86 6ebf 685e 01bf
00000150: 3c39 b8bf 19ed efbf 70ae 5abf d900 36bf
00000160: 05fb 58bf e103 95bf 0ba2 2ebf cbff 46bf
00000170: 1cc9 7dbf 5ec8 9fbf 17f4 68bf e45a 84bf
00000180: 8eab 87be 8bf0 09bf c289 0bbf d824 85bf
00000190: b1b7 b8be e873 75bf 4618 22bf b815 81bf
000001a0: 6e65 12bf baed 15bf 48e1 02bf 52ac 09bf
000001b0: a0f8 c7be 3086 8abf 4ee9 34bf 512e cfbf
000001c0: 63b5 01bf 65a2 9ebf 363e 82bf 722b 1bbf
000001d0: a35c 2cbf 86d6 f0be 3fac 5cbf 70ae 7fbf
000001e0: 3f5d 8ebf 834d 46bf e645 94bf 629a 38bf
000001f0: 5c11 a2bf 5358 91be 8e2a f0be ce9a 38bf

fc.weight f4 [1, 128]
-0.14900066 -0.34267804 0.11497925 -0.052556794 0.11980265 0.12736039 -0.1307833 0.09182865
0.1378459 0.11979091 0.15335827 -0.12294334 -0.11117547 0.12868947 0.11392334 -0.0826916
-0.12385307 -0.1692986 0.09523834 -0.042713594 -0.097124405 -0.08691973 0.09838631 0.10540194
0.12428021 -0.14474966 -0.08834564 0.068901226 -0.12794413 -0.14057381 0.1315952 0.096228056
0.08238247 -0.10353422 0.12649053 -0.03425902 -0.13244145 -0.11965794 0.15645362 0.094112545
-0.08137094 -0.03281947 0.10338991 0.115033075 -0.070121884 0.15863551 0.10717139 0.16396025
0.07129938 -0.15711498 0.11514498 0.08869979 -0.03999277 -0.11964757 0.1521361 0.11630318
0.10320486 0.1471272 0.113233194 -0.09528051 0.0865001 -0.09326914 0.21462831 -0.05530594
0.1352529 -0.08320114 0.1979723 0.10798401 -0.14073242 -0.057295855 -0.087902784 0.15371762
-0.14598653 -0.036779337 -0.06454172 0.075084485 -0.20155334 -0.04746616 -0.037951425 0.072439194
0.10560551 0.10389436 0.13094173 -0.061417464 0.13313691 -0.05331757 0.14319843 0.13084342
0.109057285 -0.045342084 0.09290934 0.1433095 -0.052896433 0.13779555 -0.08554297 0.15177803
-0.062325187 -0.17214926 -0.043705855 -0.117223345 -0.41544187 0.09625923 0.11050262 -0.103291646
-0.061610363 -0.08804026 0.089645885 -0.08691176 -0.048078537 -0.13838604 0.09637313 0.11898947
0.07436967 -0.10014145 -0.098582126 -0.1033719 -0.1481914 -0.17334269 -0.05890748 0.13667372
0.16181682 -0.09277455 0.13628209 0.13462096 0.11927301 0.07297176 -0.042565253 -0.089161485
00000000: a193 18be 7f73 afbe 3e7a eb3d cb45 57bd
00000010: 175b f53d c36a 023e 0fec 05be a910 bc3d
00000020: 7a27 0d3e f054 f53d f309 1d3e b8c9 fbbd
00000030: f7af e3bd 2cc7 033e a450 e93d 375a a9bd
00000040: aea6 fdbd 9d5c 2dbe 520c c33d 73f4 2ebd
00000050: 29e9 c6bd f902 b2bd c37e c93d f9dc d73d
00000060: 9f86 fe3d 4139 14be 8fee b4bd 161c 8d3d
00000070: c903 03be 95f2 0fbe e4c0 063e 3713 c53d
00000080: 24b8 a83d c009 d4bd bc86 013e 3053 0cbd
00000090: bb9e 07be 390f f5bd 6135 203e 14be c03d
000000a0: cfa5 a6bd b56d 06bd 17be d33d 7696 eb3d
000000b0: 109c 8fbd 5971 223e ac7c db3d 32e5 273e
000000c0: 6905 923d c0e2 20be 22d1 eb3d 3ca8 b53d
000000d0: 75cf 23bd c909 f5bd 91c9 1b3e 5d30 ee3d
000000e0: 125d d33d 83a8 163e cee6 e73d 6e22 c3bd
000000f0: f726 b13d e403 bfbd 86c7 5b3e 7b88 62bd
00000100: bc7f 0a3e 5c65 aabd 40b9 4a3e b826 dd3d
00000110: 291c 10be 0faf 6abd 6006 b4bd 2768 1d3e
00000120: 7e7d 15be eea5 16bd 732e 84bd e5c5 993d
00000130: 0064 4ebe e06b 42bd f472 1bbd 005b 943d
00000140: b447 d83d 91c6 d43d 9715 063e e190 7bbd
00000150: 0b55 083e 8663 5abd 9ca2 123e d1fb 053e
00000160: 6d59 df3d 9fb8 39bd 4147 be3d babf 123e
00000170: eea9 58bd 471a 0d3e 2731 afbd b36b 1b3e
00000180: b248 7fbd e547 30be e904 33bd cb12 f0bd
00000190: ccb4 d4be 8f23 c53d 334f e23d 928a d3bd
000001a0: 265b 7cbd 744e b4bd 4398 b73d cbfe b1bd
000001b0: 00ee 44bd 12b5 0dbe 475f c53d c0b0 f33d
000001c0: 204f 983d f616 cdbd 6de5 c9bd a6b4 d3bd
000001d0: 7dbf 17be bf80 31be f848 71bd 32f4 0b3e
000001e0: 4fb3 253e 9500 bebd 888d 0b3e 14da 093e
000001f0: 6845 f43d 3872 953d e758 2ebd 4c9a b6bd
