notebooks/url/best_charcnn.pt (torch, 191673 bytes, 4 tensors)

embedding.weight f4 [95, 64]
000000 00 00 00 00 00 00 00 00 00 00 00 00 00 00 00 00
       0.0 0.0 0.0 0.0
000010 00 00 00 00 00 00 00 00 00 00 00 00 00 00 00 00
       0.0 0.0 0.0 0.0
000020 00 00 00 00 00 00 00 00 00 00 00 00 00 00 00 00
       0.0 0.0 0.0 0.0
000030 00 00 00 00 00 00 00 00 00 00 00 00 00 00 00 00
       0.0 0.0 0.0 0.0
000040 00 00 00 00 00 00 00 00 00 00 00 00 00 00 00 00
       0.0 0.0 0.0 0.0
000050 00 00 00 00 00 00 00 00 00 00 00 00 00 00 00 00
       0.0 0.0 0.0 0.0
000060 00 00 00 00 00 00 00 00 00 00 00 00 00 00 00 00
       0.0 0.0 0.0 0.0
000070 00 00 00 00 00 00 00 00 00 00 00 00 00 00 00 00
       0.0 0.0 0.0 0.0
000080 00 00 00 00 00 00 00 00 00 00 00 00 00 00 00 00
       0.0 0.0 0.0 0.0
000090 00 00 00 00 00 00 00 00 00 00 00 00 00 00 00 00
       0.0 0.0 0.0 0.0
0000a0 00 00 00 00 00 00 00 00 00 00 00 00 00 00 00 00
       0.0 0.0 0.0 0.0
0000b0 00 00 00 00 00 00 00 00 00 00 00 00 00 00 00 00
       0.0 0.0 0.0 0.0
0000c0 00 00 00 00 00 00 00 00 00 00 00 00 00 00 00 00
       0.0 0.0 0.0 0.0
0000d0 00 00 00 00 00 00 00 00 00 00 00 00 00 00 00 00
       0.0 0.0 0.0 0.0
0000e0 00 00 00 00 00 00 00 00 00 00 00 00 00 00 00 00
       0.0 0.0 0.0 0.0
0000f0 00 00 00 00 00 00 00 00 00 00 00 00 00 00 00 00
       0.0 0.0 0.0 0.0
000100 5f 67 ce bf 5a a9 e9 3f 5b 02 3c 3f 73 90 2b 3d
       -1.6125296 1.8254807 0.73441094 0.041885804
000110 a9 62 92 3d c7 8b 9a 3f 35 ed c9 bd 2a 9d ad 3d
       0.07147724 1.2073907 -0.09859697 0.08477242
000120 43 dd 6b bf 02 4b 6c 3f 68 fe 0f bf e9 3f e8 be
       -0.92134494 0.9230195 -0.5624757 -0.4536126
000130 d2 2e 9d bd a9 fa e4 3e ba f0 42 bf 28 80 9e bf
       -0.07674946 0.4472249 -0.7614857 -1.238286
000140 6a 28 e6 bc ed 62 4c bf fa cc cd 3e 20 12 5e bd
       -0.028095443 -0.7983845 0.40195447 -0.054216504
000150 88 7c ba 3e 93 39 99 3c 37 81 08 40 07 d7 13 bd
       0.36423135 0.018704211 2.1328866 -0.036093738
000160 e3 ff 55 bf f3 7c 2b 3e bd 87 82 3e a1 92 b2 bf
       -0.8359358 0.16746883 0.25494185 -1.3950998
000170 a6 bf 07 40 48 d5 04 3f 1b 12 8f 3f 60 f8 b1 3f
       2.1210723 0.5188794 1.11774 1.3903923
000180 60 d0 7a 3e 09 d1 f5 3e 6a ee 47 be a7 eb 2e bf
       0.24493551 0.48011044 -0.19524541 -0.68328327
000190 cc c8 35 3e 5e c0 1c 3c 00 48 cd bf cf 52 94 3e
       0.17752379 0.009567348 -1.6037598 0.28969428
0001a0 2d 95 7e bc 71 ae f3 3e d5 76 57 3e 70 b3 9f 3f
       -0.015538496 0.47594026 0.21041425 1.2476635
0001b0 6a 4d f3 3e 94 12 17 3f a5 87 98 be 2a 1e d9 3f
       0.4752 0.5901272 -0.2979099 1.696233
0001c0 16 7d 35 bf ed ed 11 3d 60 45 9c bf 11 8a 00 3e
       -0.7089399 0.035627294 -1.2208672 0.12552668
0001d0 e4 16 1a 3f 5e c1 e5 bf bf 77 e6 3e be 84 57 3e
       0.6019118 -1.7949636 0.45013234 0.21046731
0001e0 bf ed 21 bf 54 fc 1a bf ab e6 44 3e 87 6c e9 3d
       -0.63253397 -0.6054127 0.19228618 0.11397653
0001f0 65 81 9f 3d e4 13 91 be b0 b2 0a 3f d2 9f 22 3f
       0.07788352 -0.28335488 0.54178905 0.63525116
000200 dc ff d4 3f 5d 45 a1 3f a0 07 f4 bd 57 4a af 3f
       1.6640582 1.2599293 -0.11915517 1.3694562
000210 ca 52 5e 3c 3f a9 a8 3e ca eb 7a bf d6 87 67 3f
       0.013569543 0.32941625 -0.98016036 0.90441644
000220 50 10 15 3f 4e 93 75 bf 25 51 9b 3e 32 9a 04 40
       0.58228016 -0.95927894 0.30335346 2.0719113
000230 22 47 ba be bd 42 73 bf 2a 1f 96 bf 7d 22 46 bf
       -0.36382395 -0.9502371 -1.172826 -0.77396375
000240 da 8d ae 3f ea 97 b0 3d 48 1d 92 bf e4 5c 6d 3f
       1.363704 0.08622725 -1.1415186 0.92719865
000250 20 4e 2c 40 19 eb b7 3e 6a 27 05 3f 3a 4a 2c 3c
       2.6922684 0.35921553 0.52013266 0.010515744
000260 bc db 97 be af 78 9e 3e 8c ad 44 bf 1e 30 5c bf
       -0.29659832 0.3095145 -0.7682731 -0.8601092
000270 7d 17 a0 3f a3 d9 8a 3f e4 f0 ae 3f 5e 1f 7d 3f
       1.2507168 1.0847667 1.3667264 0.9887599
000280 23 11 1e be 89 7d 75 be b9 f1 60 be 70 8a 8a 3f
       -0.15436225 -0.23973669 -0.2196721 1.0823498
000290 85 df 9f be e8 4e 94 3d 5d 0f 6e 3e 58 34 b4 bf
       -0.3122522 0.07241613 0.23248048 -1.4078474
0002a0 0f 85 c1 3e f8 84 47 3f 90 2c 07 3f 12 9e 75 3f
       0.37796828 0.7793727 0.5280237 0.9594432
0002b0 b4 d4 98 3e f7 c6 2e be 4e 66 0e 40 5e 92 c1 3f
       0.2984978 -0.17068087 2.2249942 1.5122793
0002c0 50 6d 81 be 76 dc 3e 3e e2 42 2f bf 7a 92 30 bf
       -0.2527871 0.18638787 -0.6846143 -0.68973505
0002d0 4c f4 7e 3e 0a 39 49 bf 87 c4 d1 bc 9f 36 24 be
       0.2489788 -0.7860266 -0.025606407 -0.16036461
0002e0 25 49 13 3f d0 97 00 40 e9 31 83 3f ae bb 09 3e
       0.57533485 2.009266 1.0249606 0.134505
0002f0 a6 25 9b 3f 1d 03 90 3f 2c fa 5f bf b7 ed d7 3e
       1.2120864 1.125095 -0.87491107 0.4217355
000300 51 4d 2c 3e 3d 68 8a 3e 5e 31 c1 bf a8 91 9c be
       0.16826369 0.27032652 -1.5093191 -0.30579877
000310 af 50 86 be 60 f3 05 bd 33 17 36 3f ef f6 29 bd
       -0.26233432 -0.032702804 0.7112915 -0.04149526
000320 e7 5a 40 be 38 d5 a9 3e e6 a9 19 be d9 ff 69 3e
       -0.18784676 0.33170485 -0.15006217 0.22851504
000330 1d c4 27 bf 03 23 ec be 05 a9 58 be 32 0d f5 3e
       -0.6553362 -0.46120462 -0.21158226 0.4786163
000340 fb 6e 8d 3e 37 bb bc 3e f3 de 17 3f 04 65 96 3f
       0.27623734 0.36861584 0.5932457 1.1749578
000350 e7 a8 d4 3d 7e 38 89 bd 43 ae 9a bf 1b de 1f be
       0.10383778 -0.06700228 -1.208443 -0.1561207
000360 62 ec a5 bf 43 48 aa 3f 4b c4 89 bf 6e ab 27 bf
       -1.2962763 1.3303303 -1.0763029 -0.65495956
000370 dd 3e 32 3f b6 a1 90 bc d9 83 8c 3f 94 d4 01 3f
       0.6962717 -0.017655235 1.0977737 0.50714993
000380 6d d6 80 3e b2 8a 41 be 19 0e e6 be a4 0f 2b bf
       0.25163594 -0.18900564 -0.4493263 -0.6682074
000390 e3 38 47 3f 35 a9 5b bd b0 ab e6 bf 3e bf ff bf
       0.7782118 -0.053628165 -1.8021145 -1.9980237
0003a0 29 7f 93 3f 47 96 51 3f a1 85 81 3f 0c 1b 3b 3f
       1.1523181 0.8186993 1.0118905 0.73088145
0003b0 14 57 e6 bd 3a 8f a6 3f 92 de 55 bf c5 a2 59 bf
       -0.112470776 1.3012459 -0.8354274 -0.8501399
0003c0 02 03 a7 be 84 75 a4 be 91 7d 2d 3f 6b b8 38 bd
       -0.32619482 -0.32120907 0.67769724 -0.04509775
0003d0 2f 7a 13 3f 56 3a 1d bf aa a4 f3 bd 1e 53 cc 3e
       0.5760831 -0.6141714 -0.118966416 0.39907163
0003e0 30 7f c3 be 66 f5 6e 3d c7 e2 47 3f 2a 2a a8 3e
       -0.38182974 0.0583395 0.7808041 0.3284467
0003f0 50 83 9e 3f 43 c8 f6 bf 52 38 53 be 8b 92 8d be
       1.2383823 -1.9279865 -0.20626953 -0.27650866

conv1.weight f4 [128, 64, 5]
000000 9f 09 91 bd af 08 b8 be 3a 11 07 bf c4 55 1f 3e
       -0.07081913 -0.35944125 -0.5276066 0.1556006
000010 97 38 85 be 5d 24 bd bd fb 0c ab be ef 6e ed 3d
       -0.26019737 -0.09235451 -0.3340834 0.115934245
000020 b4 05 5d bd 8f b3 a2 3d 65 57 09 bd 80 54 03 be
       -0.053960517 0.07944404 -0.03353061 -0.12825203
000030 b5 f9 30 3e a5 eb df 3d d5 08 99 bb fd 92 1b bf
       0.17282756 0.109336175 -0.0046702423 -0.6077116
000040 4d 58 94 be 6b 3b a1 3e 62 1e 51 bf b8 f4 c0 3c
       -0.28973618 0.31490645 -0.81686985 0.023554191
000050 a9 54 64 be e6 4e b2 bc e4 8f 24 be 68 26 d0 be
       -0.2229792 -0.021766137 -0.16070515 -0.40654302
000060 ae 41 f2 3d fb 01 27 3e 43 9b c7 3d 07 03 29 be
       0.11828934 0.16309349 0.09746411 -0.16505061
000070 c0 2a 28 3e e0 b7 9d 3d f9 b7 d6 3c 35 53 32 be
       0.16422558 0.07701087 0.026210772 -0.17414553
000080 80 1a e4 bd 3f 0d 00 bd 51 34 db 3b 34 a8 f4 be
       -0.11137867 -0.031262632 0.006689586 -0.4778458
000090 2d 11 64 3d 85 3f 36 be c1 f4 b1 3d 40 23 ad 3b
       0.055680443 -0.17797668 0.08689261 0.005283743
0000a0 63 34 b0 be 4c a6 65 be bd 65 81 be 76 d6 d2 be
       -0.34414968 -0.22426718 -0.25272933 -0.41179246
0000b0 f7 55 43 3e ef 9b 31 3d 06 49 2e bf 06 3f ca be
       0.19075762 0.0433616 -0.68080175 -0.39501208
0000c0 28 07 f8 3c ba 15 99 3e 96 3e be be 87 31 94 bc
       0.03027685 0.2989939 -0.37157124 -0.018090023
0000d0 15 c2 21 bb 68 1a 09 3f 5e d4 bf bb 6d 36 fe be
       -0.0024682332 0.5355592 -0.0058541736 -0.496509
0000e0 1a 80 45 be 98 ed 99 bd f5 d0 dd bd 13 4d 83 3e
       -0.19287148 -0.075160205 -0.10830871 0.2564474
0000f0 0a b1 c7 be c0 2d 64 3e a3 6b 3b bd bc d2 5b be
       -0.39002258 0.22283077 -0.045756947 -0.21467108
000100 f3 31 8a be 2c 2d 5f 39 c0 88 eb 3d bf a7 ba be
       -0.26991233 0.00021283765 0.11500692 -0.36456105
000110 e8 95 46 bf e4 a4 95 3e 87 5c 85 3e df f5 8f 3e
       -0.7757249 0.29227364 0.26047155 0.28117272
000120 28 d9 b2 3e 71 eb 27 3f 40 e2 6f be 54 47 0f 3e
       0.34931302 0.6559363 -0.23426151 0.13992053
000130 b5 95 46 be 04 66 cc 3e ca b1 09 be 19 c1 b9 3d
       -0.19393046 0.39921582 -0.13446727 0.090700336
000140 a2 07 18 3e a4 55 9e bd 99 46 02 3f 4e dc d3 be
       0.14846662 -0.077311784 0.50888973 -0.41379017
000150 5f 3f 4f be d8 ba a7 3d 7c 24 b3 be b1 05 82 3d
       -0.20239018 0.081899345 -0.34988773 0.06348742
000160 24 8b 81 be 45 85 63 be b9 3d 94 be 88 56 82 be
       -0.25301468 -0.22218807 -0.2895334 -0.25456643
000170 d4 83 c3 be ca 55 2f be 79 a6 b0 3d 05 d4 ee be
       -0.38186514 -0.1712257 0.08625502 -0.46646133
000180 b8 9d 30 be 12 bc f2 bd 98 e5 80 be ed 7c a7 3d
       -0.17247665 -0.11852278 -0.25175166 0.081781246
000190 8d 48 82 be a8 e0 42 3e b2 09 6d 3d 95 e2 17 3e
       -0.25445977 0.19031012 0.057870574 0.14832528
0001a0 b8 ca be 3e e1 ba 8e be a8 db 39 bd 43 6f c4 3d
       0.37264037 -0.27876952 -0.045375496 0.09591534
0001b0 eb d1 0c 3c aa 05 ac be 31 cd bd 3c 52 f8 05 3e
       0.00859497 -0.3359807 0.023169132 0.13083008
0001c0 0f 97 f0 3d 43 38 8f be 86 f2 84 be 46 9c 54 3f
       0.11747562 -0.27972612 -0.2596628 0.83050954
0001d0 ce 54 93 be de f8 83 bc a5 9d bf 3e 80 90 ed be
       -0.28775638 -0.01610988 0.3742496 -0.46399307
0001e0 f8 ae ff 3e 56 c9 67 3e 46 f5 a0 3e cf b0 e1 3e
       0.49938178 0.22635397 0.3143713 0.44080207
0001f0 49 28 c8 bd 57 67 ad 3e 7d 82 87 3d 54 1f 60 3d
       -0.09773309 0.33867905 0.066166855 0.054717377
000200 7e e0 61 3d 93 73 93 3d b9 d8 f1 3d 42 a9 18 be
       0.055145733 0.071997784 0.11808915 -0.14908317
000210 c4 d8 81 3e bc 8c b0 3d 58 76 80 be a6 da 29 3d
       0.25360692 0.08620593 -0.2509029 0.041468285
000220 74 a8 1b be d7 93 82 3d f1 7c 6a 3d d4 d8 42 3e
       -0.15200979 0.063758545 0.05724806 0.19028026
000230 86 e3 8b 3d c2 d9 ba be 0b ee 7f 3e c6 32 49 bf
       0.06830506 -0.3649426 0.2499315 -0.785931
000240 4e f8 27 3e 4a df 59 3e 8e 70 b6 bd b6 24 94 bd
       0.16403314 0.21276584 -0.08908187 -0.072335646
000250 c6 30 47 3d a0 56 1d 3e cf 03 ae be 89 19 7c bd
       0.0486305 0.15365076 -0.3398728 -0.06154779
000260 b4 c7 a8 bd 0d db 25 be 02 2f ac 3e df 6b 42 3d
       -0.08241215 -0.16196842 0.33629614 0.047466155
000270 d0 86 2f bf 19 46 07 bf f7 4c 86 3d 65 36 1d 3e
       -0.6856508 -0.52841336 0.06557649 0.15352781
000280 22 bf 9b bc ec fc a5 3d ab 4d b8 bd d7 3e 06 be
       -0.019012038 0.08104882 -0.08999189 -0.13109909
000290 ee 02 7c 3e 1a ba 26 3e 5f c4 35 bc 1f 54 a6 bc
       0.24610493 0.1628193 -0.011094182 -0.020303784
0002a0 65 ec 6a be 93 2f 31 be 22 3c fe 3e 5b b6 bf be
       -0.2294174 -0.17303304 0.49655253 -0.37443814
0002b0 2c 0a e9 3e 1b dc 6d be ca c4 22 be fc f5 83 3e
       0.45515573 -0.23228495 -0.15895382 0.2577361
0002c0 b1 c4 c3 3d d2 1e e1 3e a5 8f a0 3e c0 51 98 be
       0.09559 0.43968827 0.31359592 -0.2974987
0002d0 7f e5 c5 be b1 22 b3 be a6 0c 2b 3e 19 da 47 3e
       -0.38651654 -0.34987405 0.16704044 0.19516791
0002e0 e7 b6 e5 be af 3b 15 3e 66 69 5f be de ea ab 3d
       -0.44866106 0.14573549 -0.2181755 0.08394407
0002f0 32 8c 14 3e 0b e0 9f 3e c6 ba b5 3e ee 9e 56 be
       0.14506605 0.3122562 0.3549406 -0.20959064
000300 bb 4b 62 3e eb 99 3b 3f e7 ef 44 bd 25 a9 c2 3d
       0.22099201 0.73281735 -0.04808035 0.09504918
000310 1c 51 5f be 2e a6 a6 be 8a cc 13 bf 46 4b c2 bd
       -0.21808285 -0.3254866 -0.57733977 -0.094870135
000320 53 20 bc bc 1d fb a2 3e 01 61 99 be fb 9d d8 3d
       -0.022964632 0.3183221 -0.2995682 0.105770074
000330 26 25 a7 be 86 b9 92 bd 66 51 42 bd 01 e1 cc bd
       -0.3264553 -0.07164292 -0.04744091 -0.100038536
000340 ca 12 ac 3d 24 e2 46 3c 81 82 8e be a0 14 a7 be
       0.08402021 0.012138877 -0.27833942 -0.32632923
000350 74 dc 84 3e d3 d7 be bd 6c 72 f2 bd 1c 7e 40 3e
       0.25949442 -0.09318509 -0.118382305 0.18798107
000360 70 ea e3 bd cb 28 63 be fc 6e b1 be de f0 b3 3a
       -0.111287 -0.2218353 -0.34654987 0.00137284
000370 8a 31 8a bd 2b 0c 6a 3d e6 9a 87 3e 27 10 9c be
       -0.0674773 0.05714051 0.26485366 -0.30481073
000380 05 84 0a be c1 49 b8 3c 18 3b 3c 3e 79 1e d5 be
       -0.13526924 0.022496106 0.18381917 -0.4162481
000390 22 0a 87 be 5b 5e 01 3e 53 32 3d bf 4c f7 ac be
       -0.26374918 0.1263365 -0.73904914 -0.33782423
0003a0 b1 cd 4d be 07 11 31 3b 38 aa 06 be 2f f6 a5 3d
       -0.20097996 0.0027018206 -0.13150871 0.081035964
0003b0 fe a8 cb 3d b9 35 ce 3c 3d e4 a8 3d ac 52 43 be
       0.09944342 0.025172101 0.08246658 -0.19074506
0003c0 cd 05 69 be 3b 7d 86 3c 84 45 be 3e cd 53 6d be
       -0.22756119 0.016417136 0.3716241 -0.23176499
0003d0 6e 9f 1d be cb c7 cc be e9 70 57 be ae ae f9 bd
       -0.15392849 -0.3999618 -0.21039166 -0.12191521
0003e0 7e d1 e0 bd b2 68 e8 3d 70 d8 f4 3d de 9b a9 3d
       -0.109774575 0.11348094 0.11955345 0.082816824
0003f0 93 a8 cf 3e 2f 6c fd bd b4 86 84 bc a8 b6 30 be
       0.405583 -0.1237415 -0.016177513 -0.17257178

conv1.bias f4 [128]
000000 08 d5 fd be 63 7f 1f bf 7a 0c 4f bf 30 5a bd be
       -0.49576592 -0.6230375 -0.8087841 -0.3698287
000010 0b 7d 8a bf b5 77 64 bf 8f 00 30 bf ad 36 8e bf
       -1.081941 -0.8924516 -0.6875085 -1.1110436
000020 94 14 7d bf 82 a4 70 bf cd 2a 48 bf 19 23 63 bf
       -0.98859525 -0.9400102 -0.7819031 -0.8872543
000030 a6 9d 41 bf 9c e2 85 bf c8 e5 99 bf 55 a3 aa bf
       -0.7563118 -1.0459781 -1.2023249 -1.3331095
000040 69 fa f4 be 16 36 d8 be a7 d7 81 bf 8d 61 c9 be
       -0.47847298 -0.42228764 -1.0143937 -0.39332238
000050 7f 58 2e bf f2 16 13 bf df 96 88 bf a9 44 a1 bf
       -0.68103784 -0.57456887 -1.0671042 -1.2599078
000060 13 63 51 bf 60 e6 d1 bf 8c 48 f1 be e5 5a 50 bf
       -0.817918 -1.639843 -0.4712566 -0.81388694
000070 20 a8 33 bf f2 e1 9d bf 6d 64 77 bf c9 ee 6e bf
       -0.70178413 -1.2334578 -0.9663761 -0.9333311
000080 76 51 52 be 60 51 66 bf d5 4e 9d bf e0 28 cd be
       -0.20538887 -0.8996792 -1.2289683 -0.40070248
000090 43 b8 0c bf 4e 14 e9 be 9a a9 37 bf 6c f4 22 bf
       -0.5496866 -0.45523304 -0.71743166 -0.6365421
0000a0 6c 63 5e bf 03 a6 c8 be 9a 4b 4f bf 27 86 40 bf
       -0.86870456 -0.39189157 -0.80974734 -0.752047
0000b0 ab ff e9 be be 62 88 bf 50 97 c8 be 11 62 8d bf
       -0.45702872 -1.0655134 -0.39177942 -1.1045552
0000c0 e8 3c 6d bf e6 eb 1b bf 3f b2 73 bf 52 ec 24 bf
       -0.9267106 -0.6090683 -0.95193857 -0.64423096
0000d0 e3 a6 cf be 00 d0 0a bf 1a 0d 4b bf 56 71 a6 bf
       -0.40557012 -0.5422363 -0.79316866 -1.3003337
0000e0 f8 d8 42 bf 11 b5 89 bf 36 1e 64 bf de cd a0 bf
       -0.7611232 -1.0758382 -0.891086 -1.2562826
0000f0 d0 a7 cd be 23 75 6f bf c2 ea ae bf 24 43 ec be
       -0.40167093 -0.9353811 -1.3665392 -0.46144974
000100 55 dd 4f bf db 15 37 bf 22 af 37 bf 28 63 3d bf
       -0.811971 -0.71517724 -0.71751606 -0.73979425
000110 d0 3c 88 bf d7 d8 63 bf ad 4b 55 bf 1b f9 8c bf
       -1.0643559 -0.89002746 -0.833186 -1.1013521
000120 ea d9 4c bf 06 23 9c be 3a 4f 00 bf 67 6e 5c bf
       -0.8002001 -0.3049547 -0.5012089 -0.8610596
000130 bd 56 eb be e5 97 d5 be 7d 1e c9 be ed ed 43 be
       -0.45964614 -0.4171745 -0.39281073 -0.1913373
000140 f4 86 aa be 4e 60 2e bf 9e 6a 5d bf 15 86 f3 be
       -0.33306086 -0.681157 -0.8649081 -0.47563234
000150 45 88 a7 bf 59 f5 d9 bf b6 65 4e bf 41 38 2e bf
       -1.3088461 -1.7027999 -0.8062395 -0.68054587
000160 89 68 46 bf 9d 71 8a bf 83 a4 1c bf 68 db 35 bf
       -0.7750326 -1.0815922 -0.61188525 -0.7103791
000170 03 8a 6e bf 0a c6 90 bf 3d 7e 51 bf a1 36 74 bf
       -0.9317934 -1.1310437 -0.8183325 -0.9539586
000180 01 9c 6e be 16 7c 01 bf 30 0b 03 bf fa d2 73 bf
       -0.23301698 -0.50579965 -0.51188946 -0.952438
000190 a1 8c a7 be ac 30 6f bf c1 64 19 bf c8 b4 70 bf
       -0.3272448 -0.9343364 -0.59919363 -0.9402585
0001a0 01 76 10 bf 06 2f 04 bf 74 16 fe be b1 dd f6 be
       -0.5643006 -0.5163425 -0.49626505 -0.48216012
0001b0 19 7d c6 be 31 19 80 bf d2 70 1f bf 03 4c bb bf
       -0.38767317 -1.0007688 -0.62281525 -1.4632572
0001c0 07 0e f6 be 26 42 90 bf 01 e8 72 bf 0d be 19 bf
       -0.48057577 -1.1270187 -0.9488526 -0.6005562
0001d0 be 1c 21 bf 0d 09 ea be e6 9b 4e bf e8 21 6f bf
       -0.6293448 -0.4571003 -0.8070663 -0.9341111
0001e0 24 e9 83 bf dd dc 37 bf 3e 44 88 bf 08 5b 31 bf
       -1.0305524 -0.71821386 -1.0645826 -0.6927953
0001f0 f0 91 91 bf cc 02 8c be 8e 46 e5 be e0 c5 2a bf
       -1.1372662 -0.27345884 -0.4478039 -0.66708183

fc.weight f4 [1, 128]
000000 35 d5 04 be c6 5c b1 be b3 2e 08 3e d0 7d 31 bd
       -0.12971957 -0.34641093 0.13299064 -0.043332875
000010 dc 8f cf 3d c6 54 0d 3e f6 46 00 be 4e ec da 3d
       0.10134861 0.1380187 -0.1252707 0.10689603
000020 b8 bd 25 3e 83 fb 1f 3e cb 87 32 3e fd 23 c5 bd
       0.16185653 0.15623288 0.17434613 -0.09626005
000030 70 05 b8 bd fd 68 b8 3d 58 51 c3 3d 03 a9 e2 bd
       -0.08985412 0.090044 0.095369995 -0.11067393
000040 be 84 bc bd 20 a2 17 be fa 4b 8b 3d 61 7c fe bc
       -0.09205006 -0.1480794 0.06801601 -0.031065168
000050 09 84 fb bd 61 6b d0 bd 8d 7b ec 3d 79 0f d5 3d
       -0.12281043 -0.10176731 0.11547003 0.10403342
000060 ce bf db 3d 11 17 21 be 9f f0 db bd 57 90 cd 3d
       0.10729943 -0.15731455 -0.10739254 0.10037296
000070 7b 7f 1a be aa 2a 0c be 91 c2 e1 3d 56 d7 ab 3d
       -0.15087692 -0.1368815 0.11023439 0.083906814
000080 b1 f0 93 3d 79 5f b1 bd 05 62 02 3e 4b af 25 bd
       0.072236426 -0.08660788 0.12732704 -0.040450376
000090 f8 bd d8 bd 6b 1b eb bd 3b 12 0f 3e 21 1d b9 3d
       -0.10583109 -0.11479839 0.13971798 0.09038759
0000a0 95 35 b5 bd 3b 11 cc bc 67 64 ed 3d fe 5f e1 3d
       -0.088481106 -0.02491056 0.11591416 0.11004637
0000b0 48 9b 80 bd d6 2f 09 3e df c1 e6 3d db 55 18 3e
       -0.062796175 0.13397154 0.11267447 0.14876501
0000c0 1e bd 7d 3d f0 47 45 be 0b 0b 15 3e ad 54 f5 3d
       0.061947934 -0.19265723 0.14554994 0.11979041
0000d0 7a c5 c9 bc 98 c6 c4 bd a1 1f 31 3e 16 cf fe 3d
       -0.024630297 -0.09608191 0.17297222 0.12441842
0000e0 f9 48 f5 3d 0a 3e 26 3e e7 ac 1d 3e 93 dd 00 be
       0.11976809 0.16234604 0.15397988 -0.12584524
0000f0 fc f0 87 3d 58 3b d4 bd 54 5e 5d 3e 39 ab 13 bd
       0.06637761 -0.103628814 0.21618015 -0.036051963
000100 02 41 0d 3e 19 b4 bb bd dc 78 49 3e 80 ea 1e 3e
       0.1379433 -0.0916521 0.1967501 0.15519142
000110 cd a3 cb bd 94 ee 68 bd e0 0a c3 bd 83 6a 1a 3e
       -0.09943352 -0.05686815 -0.095235586 0.15079693
000120 16 c2 13 be d3 20 2d bd b8 4b ad bd 22 4a 9d 3d
       -0.14429507 -0.04226763 -0.08461708 0.07680155
000130 3b 01 45 be f0 62 48 bd 72 23 0c bd 8a 63 92 3d
       -0.1923875 -0.04892248 -0.03421349 0.07147892
000140 9c 62 b7 3d 22 ac c6 3d ab a7 0a 3e fe 1b 66 bd
       0.08954355 0.097008005 0.13540523 -0.05617904
000150 45 3d 08 3e 5c dd 4b bd e4 d2 2c 3e 6a fa ef 3d
       0.13304622 -0.04977165 0.16877323 0.117176846
000160 df a7 c7 3d 3d 05 4f bd 0d 1a d0 3d 8a ad 11 3e
       0.09748816 -0.050542105 0.10161219 0.14226356
000170 74 19 5a bd 17 73 1c 3e 36 65 e2 bd fc a9 0a 3e
       -0.05324693 0.15278278 -0.11054461 0.13541406
000180 e3 be 94 bd 11 31 12 be f4 6d 40 bd 73 d6 d8 bd
       -0.07262971 -0.1427653 -0.04697986 -0.10587778
000190 d5 82 cc be d4 59 d0 3d fc da f1 3d 5f 42 02 be
       -0.39943567 0.10173383 0.11809346 -0.12720631
0001a0 47 62 87 bd 5e 8d e1 bd 2c 5b ad 3d 15 8d e9 bd
       -0.06610542 -0.11013292 0.08464655 -0.114038624
0001b0 b4 9b 26 bd 50 e1 17 be 3d 56 00 3e 12 da d3 3d
       -0.040675834 -0.14832044 0.12532897 0.10344328
0001c0 b5 f5 97 3d 5f b3 f5 bd 62 c9 cb bd 61 05 d2 bd
       0.07419912 -0.11997103 -0.0995052 -0.10254932
0001d0 3d bc 14 be d4 3e 42 be e0 5b 3b bd cc 83 b6 3d
       -0.14524932 -0.1896928 -0.045741916 0.08911857
0001e0 d8 7b 2a 3e 00 46 c1 bd 22 3b 02 3e b0 8f c9 3d
       0.16648805 -0.094371796 0.1271787 0.09841859
0001f0 36 d3 f7 3d e3 b0 8f 3d 17 0c 09 bd 9c e7 eb bd
       0.12100832 0.0701616 -0.033458795 -0.11518785
